module_2/03_4gram.pth (torch, 67221 bytes, 5 tensors)

embeddings.weight f4 [79, 10]
000000 bb a7 21 c0 9f dc fd bf 70 2c 60 bf 2a 08 9c bf
       -2.5258625 -1.9832953 -0.87567806 -1.2189991
000010 c9 3c c4 3f 1a 87 82 be b4 d1 f1 bf f8 33 9f 3f
       1.533105 -0.254937 -1.8892121 1.2437735
000020 59 9e e7 bd 95 77 9c 3f 5e 32 f2 3f 5f 95 3e 3f
       -0.11309499 1.2223994 1.8921621 0.7444667
000030 c2 aa 80 bf 7d 31 88 3f 99 50 21 bf cf f5 01 bf
       -1.0052111 1.0640103 -0.6301361 -0.507657
000040 9b 9d 13 be fd 57 57 bd 27 84 5a 3f ad 98 4a be
       -0.1441559 -0.052574147 0.853579 -0.19784804
000050 1f bb 97 3e 38 b8 87 3f 06 0b 3d 3f 64 0c 35 40
       0.2963495 1.0603094 0.73844945 2.8288813
000060 45 ac 8b 3e b7 3a 2d bf c6 d4 12 3f 8e c2 c2 3f
       0.2727987 -0.67667717 0.57355917 1.5215623
000070 5d 46 55 be a5 ac 82 be 5d a4 ce bf 16 69 ab 3d
       -0.20827623 -0.25522342 -1.614391 0.08369653
000080 20 f9 d6 be fc 7e bf 3f 82 23 6e bf 15 3d ac 3f
       -0.41986942 1.4960628 -0.9302293 1.3456141
000090 50 63 9e be 4a e8 c4 3f be 34 ce be 56 1e 38 bf
       -0.30935144 1.5383389 -0.40274614 -0.7192129
0000a0 e2 7f cf bf c9 c3 52 bf 41 78 04 bd b9 eb 00 bf
       -1.6210902 -0.82329994 -0.032341246 -0.50359684
0000b0 ad ec bc 3e 6c ff ac 3e 01 7a 44 3f 4f 5e 08 40
       0.3689932 0.3378862 0.76748663 2.1307561
0000c0 fb cc c8 bd 52 5e 9d bf 86 12 94 3f 0f 40 aa bf
       -0.09804722 -1.2294409 1.1568153 -1.3300799
0000d0 4a a9 76 3e d4 0c eb bf b5 e8 74 be cc c4 f2 3e
       0.24088016 -1.836329 -0.23916896 0.4741577
0000e0 94 60 f5 3e 60 27 9e 3d 6c 19 24 3f 17 52 4c 3e
       0.47925246 0.07722354 0.6410129 0.1995319
0000f0 9a eb b4 bd 7a 7e 08 3f a2 49 94 bd c8 da af bf
       -0.08834 0.5331799 -0.07240607 -1.3738642
000100 a6 8b 65 3e 34 84 99 3e 3e d0 a4 bf 4a 22 5e bf
       0.22416553 0.29983675 -1.287605 -0.8677107
000110 7b 7d 1e 3e c1 7c ad bf c7 8c 74 3f 3f c7 25 c0
       0.15477555 -1.3553697 0.9552731 -2.590286
000120 49 ab b3 bf 53 c7 47 3f 3e 0e a2 3e 55 fc 52 3f
       -1.4036647 0.7803852 0.3165149 0.8241628
000130 fc 81 1e bf 94 6a aa 3d fb 63 a6 bf 9f 13 fa bf
       -0.6191709 0.083211094 -1.2999262 -1.9537238
000140 05 d1 67 bf fd 59 1b bf 88 e4 4f bf ca bb 0b c0
       -0.90553313 -0.60684186 -0.81208086 -2.1833367
000150 4c 2f 49 3f 73 39 b3 bd 19 6b bc be 69 c4 43 bf
       0.78587794 -0.08751192 -0.3680046 -0.76471573
000160 ec b5 2b bf c8 8b 5f 3f f4 f3 80 bf 47 5c 2c 3d
       -0.67074466 0.87322664 -1.0074449 0.04208019
000170 06 f3 df 3f 15 90 17 be 46 22 32 bf fb 9c 3b 3f
       1.749604 -0.14801057 -0.6958355 0.7328641
000180 13 ab d4 bd db a2 9f 3f 4c be c3 3e 3a ae 7e 3f
       -0.10384192 1.2471575 0.38231122 0.994846
000190 1e ec c9 3f cd d9 16 3f 0e 12 c1 be 19 d0 d4 3f
       1.5775182 0.5892609 -0.37709087 1.6626006
0001a0 6f 8c 1a 3f 0d be ac bf 08 02 a6 bf 21 3d 8b be
       0.60370535 -1.3495499 -1.296937 -0.27195075
0001b0 c6 ae a0 3f f0 29 85 3f 5a 7e c3 3f b9 a3 82 be
       1.2553337 1.0403423 1.5272934 -0.25515535
0001c0 5b b1 16 bf f3 26 ba 3f 08 7e 35 3f f2 ff ac 3f
       -0.5886437 1.4543136 0.70895433 1.3515608
0001d0 bb 6b 8b 3e fe 62 4d 3f 8b 1e e2 3e 31 41 01 c0
       0.2723063 0.80229175 0.44163927 -2.019604
0001e0 fd 0d 41 3e c7 10 81 bd 49 05 9d bf 4c 3a 94 bf
       0.18852992 -0.06302028 -1.2267238 -1.1580291
0001f0 7d ed 95 bf d7 fc 45 be 12 a2 83 3f 62 fc 80 bf
       -1.1713101 -0.19334732 1.0283835 -1.0077021
000200 3a b8 94 3b de 1d 0b c0 c1 a3 17 c0 18 eb 1e 3f
       0.004538563 -2.173698 -2.3693697 0.62077475
000210 9c 98 ef bd 43 1f 95 be ce c7 88 3f c4 ca 85 3f
       -0.1169903 -0.29125413 1.0685976 1.0452504
000220 e8 9f 82 bd 18 67 cb bf 44 c8 14 bf 1c a2 87 bf
       -0.06378156 -1.5890837 -0.5811808 -1.0596347
000230 a0 0f dd 3e 65 dc 18 3f a6 42 05 c0 74 db 99 3d
       0.43175983 0.59711295 -2.082193 0.075125605
000240 ed cc 79 3f d2 13 97 3f cb fb 21 bf 8d 89 c8 be
       0.97578317 1.1802924 -0.6327483 -0.39167443
000250 3b b3 58 3d f2 c1 8b bf 86 7a bc bd f6 55 54 3f
       0.052905302 -1.0918562 -0.09203057 0.82943666
000260 01 c2 e2 3f 8d 97 0e bf 25 94 24 c0 e0 7a 0a 3f
       1.7715455 -0.557 -2.571542 0.5409374
000270 cb d3 83 3e 49 67 1d bf ce 14 b0 3f 25 ac 84 bf
       0.25747523 -0.61485726 1.3756349 -1.0365034
000280 a3 6d 18 bf ea d3 31 bf 4c 76 c1 bf 12 89 2f 3e
       -0.5954229 -0.6946398 -1.5114226 0.17142132
000290 aa 6f b5 be 38 87 5f bf 9f 80 91 3f 24 fa ca be
       -0.35436755 -0.873157 1.1367377 -0.39643967
0002a0 d2 89 04 3f ae 61 93 bf 2b ae 2b be 02 f1 e4 bf
       0.517728 -1.1514184 -0.16765659 -1.788605
0002b0 92 c3 81 bf 4b 3c 12 c0 06 35 b8 be ac 0b a1 be
       -1.0137808 -2.28493 -0.35977954 -0.31454217
0002c0 a8 72 c9 be bb 3d e7 be 87 d1 07 40 75 d8 35 bf
       -0.39345288 -0.45164284 2.1221635 -0.7103341
0002d0 88 1b 10 bf 9a 44 a2 bf 13 8e f9 3f b6 44 96 bf
       -0.5629201 -1.2677186 1.9496483 -1.1739719
0002e0 f3 1c b7 3e 32 ad 4f be aa 6b 25 3f 35 7b 83 be
       0.35764274 -0.20280913 0.6461741 -0.25679937
0002f0 ee c3 1c 3f 0d 7a db be 2b a5 a0 bd 1a 7e 65 3f
       0.61236465 -0.42866555 -0.07844003 0.8964554
000300 59 10 50 bf 0f f0 4b 3f 30 47 c2 bf c3 4a a3 bf
       -0.81274945 0.79663175 -1.5177975 -1.275719
000310 92 cc 2f bf fc 76 cc 3e c2 2f 85 3f a5 ab 66 bf
       -0.68671525 0.39934528 1.04052 -0.9010566
000320 ff be 88 bf 9b ce 68 3f 30 92 3a bf 99 20 ef bf
       -1.0683287 0.90940255 -0.72879314 -1.8681823
000330 fd fa ea be e0 b4 09 bf c5 9a 6d 3f a1 93 89 3f
       -0.45894614 -0.5379162 0.92814285 1.0748178
000340 4b 69 97 3e 27 98 91 3d d9 5f 9e 3f b6 9b 77 3f
       0.2957252 0.07109099 1.2373 0.9672197
000350 9a ce de 3c a5 65 41 bf b0 a8 96 bf 8b c3 2c 3d
       0.027198125 -0.7554572 -1.1770229 0.04217867
000360 68 c2 a0 bf 83 45 fb be 1f b1 1d bf 94 dc 97 3f
       -1.2559328 -0.4907647 -0.6159839 1.186419
000370 b1 df 71 3e d8 10 1a c0 12 d5 f6 bf 61 1c 7e bf
       0.23620488 -2.407278 -1.9283774 -0.9926205
000380 fc b5 10 bf 4b 1c 46 3f 75 28 9b 3f 5a 28 1f 3f
       -0.56527686 0.7738692 1.2121722 0.62170947
000390 60 b9 33 3e 7c 2a 29 3d b5 d8 af bf 81 a7 19 be
       0.17551184 0.041300282 -1.3738009 -0.15005304
0003a0 39 8b 9b bf 3d 1b 91 bf 00 06 3a 3f 6c c8 c9 3e
       -1.2151862 -1.1336437 0.72665405 0.39410722
0003b0 67 6f b1 3e 69 e0 0f 40 eb 59 f4 be 4f 69 fa be
       0.34655306 2.248072 -0.47724852 -0.4890847
0003c0 d9 f1 03 bf 2b b2 d0 bf fd 0d 84 bf 74 a7 e9 bf
       -0.51540905 -1.6304373 -1.0316769 -1.8254228
0003d0 e4 ee 36 3f f2 73 b4 bb 19 ad 36 3e 6f 33 4b 3f
       0.7145827 -0.005506986 0.17839469 0.79375356
0003e0 61 6c 9d bf 22 da e5 3e 3e b3 53 3e 2f a9 a2 be
       -1.22987 0.44892985 0.20673844 -0.31769702
0003f0 bc e3 8d bc 32 55 2e 40 cc e6 cc 3f da 73 c2 bf
       -0.017320506 2.72395 1.6007934 -1.5191605

linear1.weight f4 [128, 40]
000000 6e 3e 52 bd 73 ee 51 bc 07 6c a7 3d 34 f0 05 be
       -0.05132907 -0.012813198 0.081749015 -0.13079911
000010 01 3e f4 3d 08 94 11 be 65 6a 5d 3d a1 f0 3b 3e
       0.11925889 -0.14216626 0.054056544 0.18353511
000020 23 a0 2d be 85 9e 2b 3d 66 f3 b6 bd 22 4f e3 bd
       -0.16955619 0.041899223 -0.08933143 -0.11099078
000030 c9 1e a5 bd f2 d8 b6 bd 50 f3 c0 bc 73 fd 0a be
       -0.080625124 -0.08928098 -0.02355352 -0.13573246
000040 33 94 f4 bb f0 7c a0 bd 84 af 1d 3d ed 93 91 3d
       -0.007463956 -0.0783633 0.038497463 0.07108293
000050 ad b5 bb bd 7e 2f 7e be b0 07 76 be 64 87 d4 3d
       -0.09165511 -0.24822804 -0.2402637 0.10377386
000060 32 c9 b4 3d 39 8e 56 3e 2b dc 82 3b 11 fa c1 bd
       0.088274375 0.20952691 0.003993531 -0.094715245
000070 85 2c 5d bd 3a 57 08 be 94 77 c1 3d 43 35 80 bd
       -0.053997535 -0.13314524 0.09446636 -0.06260159
000080 c2 92 08 3e ce 1c 53 be c7 34 db 3c 85 fe 7a 3a
       0.13337234 -0.20616457 0.026758565 0.00095746695
000090 20 50 af bd 87 bb 89 bc 08 f3 27 be 54 68 45 be
       -0.085602045 -0.016813053 -0.16401303 -0.1927808
0000a0 61 32 ad bd ea 1d c6 3c 8c 5d 84 3e af a0 6b 3d
       -0.08456875 0.024184186 0.2585262 0.057526287
0000b0 5c 81 16 be a8 e7 1d be 43 68 46 bd 01 20 e8 bc
       -0.14697784 -0.15420401 -0.048439275 -0.028335573
0000c0 6a 07 e8 bd b6 a3 c0 bd 1e 1b f2 3c 31 ba 1e be
       -0.11329539 -0.094062254 0.029553946 -0.15500714
0000d0 8a 47 b4 3d 83 1b bb bb 8a b5 bd bd 2d 62 85 3d
       0.088027075 -0.0057100668 -0.092631415 0.06512866
0000e0 3b 4c 41 be da 74 27 bd 4b cf 83 3d c3 c3 b3 bb
       -0.18876736 -0.040882923 0.06436022 -0.005485983
0000f0 54 3f 5e 3d c2 11 80 be e4 60 10 3e 3d 9b 2b 3c
       0.054259613 -0.25013548 0.14099461 0.010474023
000100 6a 88 8e bd 8f c9 18 be 7b 38 c9 bc 66 61 24 3e
       -0.06959613 -0.14920639 -0.024563065 0.1605278
000110 c1 2e 0b bd b1 1a 70 3e 71 b0 3c be 27 02 00 be
       -0.033980135 0.23447682 -0.18426682 -0.12500821
000120 55 99 32 3c 38 34 69 be d4 86 80 3e f4 95 1a be
       0.010900815 -0.22773826 0.25102866 -0.15096265
000130 ec cf 95 bd e0 e5 4c bd fe 7d 58 be 42 d7 9e bd
       -0.073150486 -0.050023913 -0.21141812 -0.07755901
000140 21 23 f1 3c 3d 1d 8b be a0 88 68 be da ed 93 be
       0.029435696 -0.27170745 -0.22708368 -0.28892404
000150 04 63 48 3e f9 3c 63 3d 5c e6 c1 3d 73 98 d8 3d
       0.19569021 0.05547807 0.09467766 0.105759524
000160 f3 7c 0a 3e 47 38 74 3e 68 62 b7 bc 52 7e 55 3e
       0.13524227 0.23849593 -0.022385791 0.20848969
000170 6d 54 4c be b8 c5 d5 bc 9c bf 22 be 88 db 8f 3d
       -0.19954081 -0.026095256 -0.15893406 0.07024294
000180 a7 cf fc bd 38 b3 65 3e f9 1d 40 3e e2 99 06 3d
       -0.12344294 0.22431648 0.18761434 0.032861598
000190 a6 4c 37 3b f6 d9 c5 3d 04 c4 10 3d 63 09 11 3e
       0.002796927 0.096607134 0.035343185 0.14163737
0001a0 56 1e 0e be 80 92 70 3d 2a d0 76 bd 4f 43 34 3e
       -0.1387876 0.058733463 -0.060257114 0.17603801
0001b0 13 04 14 3e 73 65 e8 3d 84 91 4c 3d 53 f9 f1 bd
       0.14454679 0.11347475 0.049943462 -0.11815133
0001c0 9b 74 29 be 65 12 bb 3d f1 0a 38 3d 96 81 e8 3d
       -0.16548388 0.09134368 0.04493231 0.113528416
0001d0 73 0f 74 3d b2 e6 f6 3a 08 65 7d be 06 b9 2b 3e
       0.059585046 0.0018837063 -0.24745572 0.167698
0001e0 fe cb 41 3d af 9a 9c 3c e5 de 65 bd 9a 72 0c be
       0.047313683 0.019116728 -0.056120772 -0.13715592
0001f0 97 f5 25 bd d7 03 97 3e 9a 08 10 3e e0 51 52 bd
       -0.040517416 0.29495117 0.14065781 -0.051347613
000200 2e 37 49 3e 61 79 6b be 38 01 f0 bc d0 ff 2a be
       0.19649956 -0.22995521 -0.029297456 -0.16699147
000210 26 79 e9 3d 1b 19 7f 3e 2e c9 71 3e 4d d1 28 be
       0.1140006 0.2491192 0.236119 -0.16486092
000220 24 a6 16 be 66 d9 e9 3d 95 9b 73 bc a1 d8 c9 bd
       -0.14711815 0.114184186 -0.014868637 -0.09855772
000230 a2 4b bd bd 64 0c f2 bd 86 d8 d9 3c 51 44 d1 3c
       -0.092429414 -0.118187696 0.026592504 0.025545271
000240 48 1d 1a 3d e3 1a 92 bc dd 87 be 3c a7 05 2b bd
       0.03762558 -0.017835086 0.023258144 -0.041753437
000250 da 20 3d 3e a7 d9 80 3b bc 62 22 be 39 c6 46 3e
       0.18469563 0.003932196 -0.15857977 0.19411553
000260 0f bf 95 3d 76 db a7 be 66 3f cd bd d3 db 3f 3e
       0.07311832 -0.32784623 -0.10021858 0.187362
000270 4d 4c 2a 3c 72 20 0e be e6 1a 9a 3d b9 b7 94 3d
       0.010394168 -0.13879564 0.07524662 0.07261605
000280 91 d0 9c 3c 73 05 99 3d e4 c7 66 be 09 55 ca bb
       0.019142421 0.074717425 -0.2253719 -0.0061746878
000290 ec 8d b0 be bc 12 36 3d 60 82 83 3e 2d e1 46 3e
       -0.34483278 0.04445146 0.25685406 0.19421835
0002a0 6b 7b b1 3d 5b 42 72 3c 27 2f 2d be ae 99 48 3e
       0.08666118 0.014786328 -0.16912518 0.19589874
0002b0 92 0d 36 3e 60 0b dc bd eb 8e 84 3c 6c c0 66 bd
       0.17778614 -0.10744357 0.01618143 -0.05633585
0002c0 05 b1 2e 3e df c4 c8 bd fb 4a 1d 3e 95 43 ce 3d
       0.17059715 -0.09803175 0.15360634 0.10071484
0002d0 28 7f 9d bd 19 f9 66 bd 12 77 91 3c db b4 12 bc
       -0.07690269 -0.0563899 0.017756972 -0.008954252
0002e0 b2 39 19 3e 94 71 6d bd e2 0c 7e be 1c 6f 57 be
       0.14963415 -0.057969645 -0.24809602 -0.21038479
0002f0 e3 93 10 3e 66 5e 16 3e b4 93 ef bd 06 73 f2 3c
       0.14118914 0.14684448 -0.11698094 0.029595863
000300 98 27 90 3b 43 91 76 3c 80 71 9e 3d e5 0a 85 bd
       0.004399251 0.0150492815 0.07736492 -0.064962186
000310 b3 76 ed bd 52 6b 51 be b7 3b c2 bd 7e ce 63 3e
       -0.11594906 -0.20451096 -0.09484046 0.2224674
000320 56 47 61 bd cc 4a 3b 3e 5e 8d 0e 3d 6b d8 fe 3c
       -0.054999672 0.18290251 0.034802787 0.031109056
000330 6f d2 8c bd c1 40 c6 bd 49 59 6e bd 5f 2c ce bd
       -0.068760745 -0.096803196 -0.058190618 -0.10067057
000340 4c ee 25 be 17 78 47 3d c8 cf 0b 3e bd da cb bb
       -0.16204184 0.04869851 0.13653481 -0.006221144
000350 8c f0 38 3e 6b 4c 37 3d ec 54 16 bd 68 58 19 3e
       0.18060511 0.044750612 -0.03670208 0.1497513
000360 93 a4 0b 3e eb cf 14 be 85 3d 0b be 9b 3e 05 3c
       0.13636999 -0.1453244 -0.13597687 0.008132602
000370 ab ea 83 bd 50 74 b6 bc b0 12 eb bc 46 06 d7 bd
       -0.06441244 -0.022272259 -0.028695434 -0.104992434
000380 e7 a3 f1 bd 7d 32 41 bc 6d 56 ec 3d 4c 57 a9 3d
       -0.1179884 -0.0117918225 0.11539922 0.08268604
000390 51 eb 1f 3c 79 7e 8b 3c 3b 8f c1 bd b8 83 8d 3d
       0.009760694 0.01702808 -0.09451147 0.06909889
0003a0 a6 48 94 bd 6f 96 57 3e 5a 21 c8 bd 8c d7 0e 3d
       -0.07240419 0.2105348 -0.09771986 0.03487353
0003b0 d5 a0 18 3e 97 59 5a ba d9 54 bb bd b4 26 e6 bd
       0.14905103 -0.000832939 -0.09147043 -0.11237851
0003c0 ee ab b9 3c d2 9d c2 3d d8 83 14 be a2 10 6c 3c
       0.02266499 0.09502758 -0.1450342 0.014408262
0003d0 d3 4e 08 be 9b 2a c1 3d 6e 30 11 bd 87 7f 1e bd
       -0.13311319 0.094319545 -0.035446577 -0.03869584
0003e0 22 1f 04 3e 2a 88 8c bc 40 d8 f7 3d 7d 0f 6c bd
       0.12902501 -0.017154772 0.12101793 -0.05763196
0003f0 6b 01 a4 bd 8a ff ad 3c 42 88 24 3d 83 5e 5f 3d
       -0.08008083 0.021240015 0.040169008 0.054533493

linear1.bias f4 [128]
000000 3f b6 5f 3d 55 eb a9 bd ee 19 5d 3d 77 0b 5b 3e
       0.054617163 -0.08296839 0.053979807 0.21391092
000010 43 8e 5d 3e 9b a8 f8 bc f3 e6 14 3e f0 ac cd 3d
       0.216363 -0.030353835 0.14541225 0.10042751
000020 47 e1 bf ba 15 72 f0 bd 88 75 db bd 72 e1 44 3a
       -0.0014639281 -0.117405094 -0.10715777 0.00075104006
000030 df 22 69 3e 45 55 ec bd b9 0a fb 3d f7 d6 62 ba
       0.22767209 -0.11539701 0.122579046 -0.0008653248
000040 d0 98 be 3d 3f fd 15 3e 0d 32 16 3e 66 f7 27 3e
       0.093064904 0.14647387 0.1466753 0.16402969
000050 95 53 03 bd 21 3e 25 3c c0 06 32 3e ff d1 24 3e
       -0.032062132 0.0100856135 0.17385387 0.16095732
000060 1f 14 96 3d a8 81 bc 3d 34 b2 81 3d e2 89 ff 3d
       0.073280565 0.092044175 0.06332818 0.12477471
000070 1d 50 0a bc 41 c2 79 bd 9c fc ac 3c e6 60 27 3e
       -0.008441952 -0.06097627 0.021116547 0.16345558
000080 19 1c 37 3e ed 9e 7b 3b 57 ad ba bc 5a 94 1b 3e
       0.17881812 0.0038394288 -0.022787733 0.1519331
000090 06 5f 3c bd 4c 05 37 bb 83 ab d2 3d 22 91 65 bd
       -0.04598906 -0.0027926741 0.102866195 -0.056046613
0000a0 82 ee 49 bd cd 2f 8a 3d a2 5a c6 3d 77 c6 f9 3d
       -0.049299724 0.067473985 0.096852556 0.12196057
0000b0 d4 d7 c8 3c 2d b7 6a 3e f2 e6 8d 3e 55 32 13 3e
       0.024516977 0.22921439 0.2771526 0.14374669
0000c0 54 58 42 3e b9 46 90 3e c8 85 4d 3e 64 8d 31 bc
       0.18979007 0.28178957 0.20070565 -0.010836933
0000d0 60 0b 6b bd 91 40 87 bc e9 45 2f 3e 59 32 c4 3d
       -0.057383895 -0.01651028 0.17116512 0.095799156
0000e0 f4 04 13 3e 86 f1 26 3e 6c a9 4b 3d aa 0b 75 3e
       0.14357358 0.16303071 0.04972212 0.2393023
0000f0 43 f9 25 3d 02 1e 07 3e 29 5b b0 3b dd 11 1d 3d
       0.040520918 0.13195041 0.005381961 0.038347114
000100 98 bf 3c 3e 53 8d 0f 3e 43 c2 0b 3e ad 29 62 bd
       0.18432462 0.14018755 0.13648324 -0.055215526
000110 2f 96 22 3d b2 2d 5c 3e 91 ba 70 3e 46 73 83 3d
       0.039694007 0.21501806 0.2350867 0.06418471
000120 8a c1 e5 3d 95 f4 9b 3a 9a cf 60 bd 9d 62 12 3e
       0.11218555 0.0011898453 -0.054885484 0.1429543
000130 8f e0 08 3e 8d 39 e5 3d 7b a2 95 3e 9e 70 63 bd
       0.13366912 0.111926176 0.29225525 -0.055527322
000140 45 79 00 3e 34 28 30 3c c0 7d 06 3b 56 85 0b 3d
       0.1254626 0.010751773 0.002052173 0.034062706
000150 83 8c d7 3d a5 aa 19 3e 80 89 1e 3e 4d ee 42 bc
       0.10524847 0.15006502 0.1548214 -0.011897636
000160 fb 0b 89 3e 9b 80 4d 3e c8 12 ae 3c b4 b4 15 3e
       0.26766953 0.2006859 0.02124919 0.14619714
000170 b7 6a 2c 3d 1f 09 74 3e 56 24 72 3e 98 4e 4f 3e
       0.04209396 0.23831604 0.23646674 0.20244825
000180 42 41 44 3d ac a1 54 3d e8 bd 89 3d 52 7f 2a 3e
       0.047913797 0.051911995 0.06725675 0.16650131
000190 a4 13 15 3c e7 90 ae 3d c4 57 74 bc 77 a1 49 3d
       0.009098921 0.08523732 -0.014913503 0.04922625
0001a0 9d c7 99 3d 4a e9 55 3e 1b 50 98 3e b9 06 aa 3d
       0.07508776 0.20889774 0.29748616 0.083020635
0001b0 24 e0 8e 3d a1 1b 11 3e 63 40 31 3e a9 23 83 3e
       0.06976345 0.14170696 0.17309718 0.25613144
0001c0 3e 34 97 3d 8f 9b f8 3d c8 d9 1a 3e 6a 40 b1 bd
       0.07383011 0.121390454 0.1512214 -0.08654864
0001d0 f9 fe c9 bc bc 78 98 bd 4b e2 d0 bc 47 37 ec 3d
       -0.024657713 -0.07444903 -0.02549853 0.11533981
0001e0 51 af 37 3c d5 70 e1 bc fb 39 f7 3d 92 65 d6 3d
       0.011211232 -0.027519623 0.12071606 0.10468592
0001f0 6f 17 8f bc b8 4b 0c 3c cf 04 62 3b 4d 6c fe 3d
       -0.017467229 0.008562975 0.003448773 0.124230005

linear2.weight f4 [79, 128]
000000 ce a6 31 3d 31 2a 9d 3c 3f f3 c6 bd 1e 51 b1 bd
       0.043371968 0.019185157 -0.09714364 -0.0865805
000010 a7 3a 57 be 5f e0 a2 bc 2b ca ea bc 21 2c 8a be
       -0.21018468 -0.01988238 -0.028660854 -0.26986793
000020 fa d1 86 bd 21 07 5c 3d 03 16 e0 bd d2 a4 01 3e
       -0.065830186 0.053717736 -0.109416984 0.1266053
000030 b8 f5 c3 3e 72 32 05 be ff a1 d9 bd 66 c4 27 be
       0.38273406 -0.13007525 -0.106266014 -0.16383514
000040 47 4a ec bd b2 48 c3 bd 88 b7 6f be 90 a1 77 3e
       -0.11537605 -0.0953535 -0.23409855 0.24182725
000050 11 5f 50 bd 65 16 cc 3e d7 2a 83 3e 0e 83 47 bc
       -0.050871912 0.39860836 0.25618622 -0.012177242
000060 e1 99 47 3c 6a c8 5e bd 89 59 ce bd 60 37 92 3d
       0.012182684 -0.05439035 -0.10075671 0.07139468
000070 93 ae 32 bd c9 19 c0 bd 6c 17 26 3e 8b 0f 6a 3e
       -0.04362352 -0.09379918 0.16219872 0.22857492
000080 da a0 dc bb c4 06 68 3e 72 00 88 bd 93 f3 d7 bd
       -0.006733042 0.22658831 -0.0664071 -0.10544505
000090 02 8b 04 be 5a b3 b5 3d d0 6a 4b bd 18 37 96 3e
       -0.12943652 0.08872099 -0.04966241 0.29338908
0000a0 42 bf ff 3e 65 2e d3 3a 79 13 5a be 8c 86 47 3e
       0.49950606 0.0016111849 -0.2129649 0.1948492
0000b0 9f ab 43 be f5 89 98 3d 6a 20 c3 3e cf b5 c6 bc
       -0.19108437 0.07448188 0.38110667 -0.024256615
0000c0 3e 05 6e 3e 63 5b 2c 3d be b5 d3 bd 51 c9 6a bd
       0.23244187 0.04207934 -0.10337399 -0.057320897
0000d0 48 56 0d be 04 45 56 3e b2 ad 02 3e c4 f5 ee 3b
       -0.13802445 0.20924765 0.12761572 0.007292481
0000e0 b4 fa c6 3e cc 49 ae bd 65 d2 bb bd f3 08 98 3d
       0.38863146 -0.085101694 -0.09170989 0.07423582
0000f0 0e a2 8a bd 38 cf 2e be aa de aa 3d 32 56 61 3d
       -0.06769191 -0.17071235 0.08343251 0.055013843
000100 95 e2 36 3e 94 8c ab be 59 ff 1a 3e 3d 7d 05 bd
       0.17859872 -0.3350569 0.1513647 -0.03259014
000110 cb ad 0b bb 12 89 16 3d c0 ec b3 bd d6 b7 1b be
       -0.0021313305 0.036751814 -0.08785391 -0.15206847
000120 a9 b3 d7 bd 9a 6a 7d be 80 55 93 3e 69 31 0a be
       -0.10532314 -0.24747697 0.2877617 -0.13495411
000130 fa 95 da 3d 5c 34 1e be 4e cb cf bd d1 db 63 be
       0.10673137 -0.15449661 -0.10146199 -0.22251822
000140 da d2 8f bd 70 4a 85 bd 7f 74 84 bd 33 14 2e bb
       -0.070226386 -0.065083385 -0.06467532 -0.0026562333
000150 31 14 ee bd 10 67 f5 bd 0c 74 94 3d 52 f2 bf 3e
       -0.11624945 -0.11982548 0.07248697 0.37489563
000160 7b 51 b7 be 6e e0 14 bc 8f 86 09 3b f9 20 da 3d
       -0.35804352 -0.009086711 0.0020984744 0.1065082
000170 de c2 0e 3d 1c 1f ae bd c7 40 a3 3e f9 a3 6a be
       0.03485381 -0.085020274 0.3188536 -0.22914113
000180 8c 06 28 bd 69 d0 dc bd 60 72 cf 3e 13 fd b6 3e
       -0.04102187 -0.107819386 0.4051695 0.35739955
000190 11 d7 ea 3e cc 4f ca bd a1 d7 4f be a4 89 91 bd
       0.45867208 -0.09878501 -0.202971 -0.07106331
0001a0 6a a0 50 3e 94 4f 99 bc b6 b1 e3 bc 69 40 3a be
       0.20373693 -0.018714704 -0.0277947 -0.18188633
0001b0 5c fb fc bc 43 b3 f6 3c a6 c9 7e 3c fd 9c f6 3c
       -0.030881576 0.030114776 0.015551006 0.030104155
0001c0 45 01 6a 3e af 81 4e 3d a0 0e b6 3d ec 7e 02 3e
       0.22852047 0.050416645 0.08889508 0.1274373
0001d0 8f 94 68 bd 07 4f 86 3d 4e 2d 80 3e 6d 83 ab 3d
       -0.0567823 0.06558042 0.25034565 0.08374677
0001e0 76 83 4f bd c7 af d7 bd c5 a1 c2 3c 4e 5b a2 3d
       -0.05066248 -0.10531574 0.023758778 0.07927571
0001f0 c4 ea 56 3d 72 a9 a6 3e 2f 1a dc bd 1d 39 20 3e
       0.052469984 0.32551152 -0.107471816 0.15646787
000200 c4 03 d1 bd 72 67 97 bd 83 72 47 bd 73 8b b5 bd
       -0.10205796 -0.073927775 -0.04869319 -0.088644885
000210 84 4b d5 bd a2 fc 96 3d eb 57 54 3d 3d 6c de 3c
       -0.10414794 0.07372405 0.051841658 0.027151221
000220 82 12 50 3c 14 06 db bb 0c bc 96 bc c9 28 c9 bc
       0.012699725 -0.006684074 -0.018400215 -0.02455558
000230 78 98 b6 3c 77 d8 a1 bd bb 05 1b 3d 47 e0 63 3c
       0.0222895 -0.079026155 0.037847262 0.013908452
000240 dc e2 21 3d 67 81 12 3d 12 1b 3a bd 26 2a a8 bd
       0.03952299 0.03576794 -0.045435973 -0.08211164
000250 67 64 97 bd cb 75 d0 bd d7 8d f7 3c e8 01 04 bd
       -0.07392197 -0.10178717 0.030219002 -0.03222838
000260 b6 a5 43 3d ad d9 1b 3c d7 bc 0c bd de 8b 89 bd
       0.047765456 0.009512347 -0.03435978 -0.06716131
000270 31 e3 8a 3d a9 f4 40 3c 56 63 bf bd e7 2f e3 3c
       0.067816146 0.0117770815 -0.09345119 0.027732803
000280 24 f2 1d 3d 06 40 c7 bd 43 d0 89 3c b5 bb 13 3d
       0.038561 -0.097290084 0.01682294 0.036067683
000290 de b6 1e bb 7b 63 86 ba ab f0 4c bd 6a 2d bb bd
       -0.0024217884 -0.0010253036 -0.050034206 -0.091395214
0002a0 49 53 37 3d 8f b1 1e 3c 53 1b 2a bc c3 26 84 bc
       0.04475716 0.009685888 -0.010382491 -0.016131764
0002b0 10 bc 08 3c 85 eb dc bc c8 2b da 3c f1 62 6b 3d
       0.008345619 -0.026967773 0.026632205 0.057467405
0002c0 39 39 ba bd be 6f 56 bd f8 56 c0 bd c1 71 d9 bd
       -0.090929456 -0.05235266 -0.09391588 -0.106174
0002d0 99 23 06 3d 39 d5 d5 bd 9a b4 8f bd 03 da af bd
       0.032748792 -0.104410596 -0.07016869 -0.08586504
0002e0 35 63 6f 3c 41 ab ea 3c 9f 21 eb bc 48 16 ec bc
       0.014611055 0.028646113 -0.028702555 -0.028819218
0002f0 a3 c6 69 3b 5a 56 17 bb 64 0c b9 bd d4 7e 71 3d
       0.0035671375 -0.002309224 -0.090355664 0.058958843
000300 d7 49 e1 bd 20 ab 84 3c 4b 18 92 bd db 6f a6 bc
       -0.11000412 0.01619488 -0.0713354 -0.020317009
000310 9b 54 7b bd c6 24 9e bb 87 65 b5 bd a0 9b a4 3c
       -0.061359983 -0.004826161 -0.088572554 0.020093739
000320 ff 34 48 bd d7 25 61 bd 4d 2f 91 bd 1d db de 3c
       -0.048878666 -0.054967728 -0.070891 0.02720409
000330 46 5c 4d 3d 0f 38 97 bc bc f7 80 3d ff 61 90 bd
       0.050136827 -0.018459348 0.062972516 -0.07049941
000340 27 09 a6 3c 30 92 60 bd f2 f5 29 3c f8 96 d4 bd
       0.020268036 -0.054826915 0.010373579 -0.103803575
000350 af 40 f3 bc b8 d3 55 3c ec db 9f bd 98 c9 0d bc
       -0.02969393 0.013050966 -0.07805619 -0.008654021
000360 19 9f 67 bd 98 88 38 bc a0 73 bf 3c 90 1b b2 bd
       -0.05654821 -0.011263035 0.023370564 -0.086966634
000370 4e b0 9d 3d 7a 18 16 bc f6 1a a2 bd 48 34 ca bd
       0.07699643 -0.009161109 -0.07915299 -0.09873253
000380 bb 3a 29 3c f5 83 b8 bc 60 82 d6 bd f5 c1 82 3a
       0.010328944 -0.02252386 -0.10474086 0.0009976017
000390 0e 9a a6 bc f8 51 6d bd e8 47 c4 bd bf 98 c9 3b
       -0.02033713 -0.0579395 -0.095840275 0.006152242
0003a0 3e ff 60 3d 47 36 7a bd 34 c0 3a 3d 67 ce 71 bd
       0.054930918 -0.06108692 0.045593455 -0.05903473
0003b0 71 9e 01 3d 68 3e 96 bc e8 da 48 bd 9c 83 72 bd
       0.031645242 -0.018340304 -0.04903689 -0.059207544
0003c0 c8 9b 2c bd 0f 75 a8 3c 3f 85 33 3d b6 6f 5d bc
       -0.042140752 0.02056363 0.043828245 -0.0135154035
0003d0 4e 89 39 bd 8c 4b 5d bd ea f7 87 3d cc 50 69 3c
       -0.04529696 -0.054027125 0.06639083 0.014240455
0003e0 dd 71 c3 bd 03 84 84 bd e7 c1 57 bd 6b d2 fd bb
       -0.09543202 -0.06470492 -0.052675154 -0.007746031
0003f0 d1 5d 24 bd d1 d3 8a bd 84 51 67 bb c8 55 6d bd
       -0.040128533 -0.06778682 -0.003529639 -0.057943135

linear2.bias f4 [79]
000000 cb 95 bd 3d 42 07 67 3c 15 48 ff 3c 08 3d 53 3c
       0.09257086 0.0141008515 0.031162301 0.012892969
000010 2d cb 82 3c 05 67 07 bc c2 e8 f4 3b 5d 50 4f bd
       0.015966022 -0.008264308 0.007474036 -0.05061375
000020 69 96 17 bd 63 b9 f6 3c bf cb 09 3d 64 2e 30 3c
       -0.037008677 0.030117696 0.033641573 0.010753248
000030 ae 64 db 3c 84 f3 4a bd a1 a3 3d bc 89 35 7d bd
       0.026781406 -0.04954864 -0.011574657 -0.061818633
000040 ec c9 3b bb 4f e1 15 bc 86 b7 6a bd 39 95 39 3d
       -0.002865429 -0.009147956 -0.057303928 0.045308325
000050 e3 68 89 3d 84 f0 eb 3d ae 4f 20 3d 5f c2 70 bc
       0.06709459 0.11520484 0.03913849 -0.014694779
000060 fd b5 8a bd 5d 26 8a 3d e4 39 0e 3d a3 c5 04 3d
       -0.06772993 0.067455985 0.034723178 0.032415044
000070 ee 62 c6 3d d9 30 2c 3e ab 5b 68 3d 78 d1 d9 3d
       0.09686838 0.16815509 0.056728046 0.10635656
000080 f5 89 08 3c 4e a9 66 bc a2 dd c1 3d c6 84 25 bd
       0.008333673 -0.014078451 0.09466101 -0.040409826
000090 ec b5 ed 3d 7f 34 10 bd 57 46 a7 3d a2 aa 63 3d
       0.116069645 -0.035206314 0.08167713 0.05558265
0000a0 85 92 3f 3d d9 ec bf bd 89 54 b9 bd 86 5e 49 3b
       0.04677059 -0.09371347 -0.09049327 0.0030726506
0000b0 7d 1f e6 3c ff 07 03 3d 4a e3 86 bc e5 b3 3a 3d
       0.028091187 0.031990048 -0.016465802 0.045581717
0000c0 d8 c9 81 3c 53 56 a3 bd 1f 33 1d bd c0 7b c1 3c
       0.015843317 -0.079754494 -0.03837883 0.023618579
0000d0 55 06 f9 bd ac 2c 63 3c 51 a5 f5 3c 32 a0 48 bc
       -0.12159411 0.013865631 0.029986056 -0.012245225
0000e0 f8 29 11 bd de 7a ed 3b 4d 56 90 3d 8c f9 6d bb
       -0.035440415 0.007247313 0.070477106 -0.0036312072
0000f0 65 9c c8 bd a4 7b 2f 3c 21 2b 03 be cb d9 9a bd
       -0.09795455 0.010710631 -0.12809421 -0.07561072
000100 b4 a9 24 3d 4e a2 80 3c cf b6 81 bd 6e 91 9f 3d
       0.040200904 0.015702393 -0.06333696 0.077914104
000110 90 1a cb bd af ec e8 bc 99 19 bf bc a7 fc 2b bd
       -0.09917176 -0.028433172 -0.023327636 -0.041988995
000120 e2 65 57 3d af 97 bf 3c e6 c1 94 3d bc ae 3f bd
       0.052587397 0.023387758 0.07263546 -0.0467975
000130 88 c1 63 3d 08 39 88 bd 5d b2 94 bd
       0.055604488 -0.06651503 -0.072605826
