module_2/2gram.pth (torch, 56762 bytes, 5 tensors)

embeddings.weight f4 [79, 10]
2.4842033 -0.667211 0.24107563 0.037480783 -1.2395648 1.953835 -2.1717627 -1.6320674
-0.19613016 -0.61748004 -0.77563643 0.16780858 -0.7060314 -0.4862403 -0.67877376 0.047565237
0.31079227 1.4691979 1.2052386 -2.2306197 -1.2344229 1.0219071 -0.8189113 0.50082743
-1.8049085 1.6646367 -0.4777796 -2.076591 0.18288197 -0.40030274 2.3675995 0.027403774
0.45067254 1.096243 0.7573345 -1.0552219 0.011141116 1.5067123 -0.5014966 -0.97751445
-0.85029465 1.9459871 0.32957554 -2.161066 -1.7237949 -0.48092684 -0.20442192 1.2661502
0.76905376 0.5434823 1.0036062 -0.41112542 0.85915273 0.6004678 -1.903485 1.0487398
-0.8977483 0.14937703 -1.9942259 0.97312534 -0.32565346 -0.8900507 0.50338024 0.82809687
0.8188685 -0.77315253 -1.5629922 0.053074524 -0.4368691 -0.42923617 -0.19150658 -0.22265293
0.04495242 1.0857517 0.17877737 -0.95421815 1.4761323 0.68557054 -0.36679745 1.8248209
-1.5945166 0.23072873 0.5415183 -0.098563515 0.804145 -1.2095324 0.919836 -0.26967338
2.2012773 -1.9372952 -1.811713 0.56311214 2.7411559 -0.49741066 0.99184823 -0.14800964
0.11138058 -0.57769316 0.29558802 1.3867707 -1.7050943 -0.16143057 0.83650434 -0.47565576
-0.919053 -0.09615581 -2.2381744 0.05890173 0.30121833 1.1055176 -0.38685104 -0.253115
0.18091284 1.5959077 -0.05318307 1.1815869 0.24869741 -1.3081607 0.13434389 -0.13608108
-0.15233973 -1.2553512 -1.4813551 0.8075573 0.40597507 1.5683657 1.500242 -0.17391421
-1.1092637 1.028817 0.2793266 0.72789586 -1.0755254 -0.2772447 0.6712111 0.4977203
-3.3775387 0.9037843 0.005570977 -0.21512613 -0.80996835 2.314916 -1.2192676 0.64680946
0.20527363 -0.06618198 0.7189919 1.7450674 -0.449432 -0.9694678 0.8596355 -1.55055
-0.022722295 0.6949159 -0.628798 0.017508931 -0.6872465 0.61323154 0.9899136 -1.0564471
-1.049092 -1.2969344 1.5001152 1.382234 0.5231802 -1.290371 -0.28945643 0.055413645
1.110893 0.9386611 -0.29806647 0.532529 1.6602265 0.45965922 -0.19437896 0.44900838
-0.6638734 -0.50729984 -0.049774993 -0.92788476 0.41542634 1.3360003 1.0975963 -0.2686704
-0.140049 0.360064 -0.647202 1.6473242 -0.9440614 -2.2778416 -0.5369864 -0.73501736
1.5247573 2.6678984 -0.0071639773 -0.9159822 -0.6324345 -0.3477032 0.9479663 1.394012
1.4280454 -1.0182431 -0.34765464 -2.0946617 -1.3562573 1.358499 1.2677374 -0.36097273
0.9768422 -2.3058803 -0.14777412 -0.9008289 -0.91163707 0.3680652 -0.10380603 0.55282015
-0.9443887 -0.07846229 -1.5876367 1.3277425 -0.482242 0.57592064 0.23710495 0.4831979
-0.9026052 -0.34347573 0.17071673 -1.0033687 -1.8253729 1.6593852 -0.6553811 -0.14729676
-0.85441434 -0.04302797 -0.714673 -0.57080275 2.6973097 0.19642748 -0.394974 0.34285858
0.071157046 -2.179072 -0.37974608 -0.26330763 0.96841544 0.81489336 0.3287036 -0.9840274
0.63254696 -1.2069495 0.31477854 -0.72283226 0.11461692 0.40128836 -0.38644284 -1.6915213
00000000: 30fd 1e40 57ce 2abf 88dc 763e 7385 193d
00000010: 0faa 9ebf 4417 fa3f 29fe 0ac0 96e7 d0bf
00000020: 58d6 48be 2c13 1ebf 1c90 46bf 03d6 2b3e
00000030: 79be 34bf 7df4 f8be 1ec4 2dbf c4d3 423d
00000040: 2a20 9f3e ad0e bc3f 4245 9a3f 79c2 0ec0
00000050: 9201 9ebf dacd 823f 2ca4 51bf 3a36 003f
00000060: 3e07 e7bf d112 d53f 879f f4be dee6 04c0
00000070: 6945 3b3e 7bf4 ccbe c086 1740 e17d e03c
00000080: 8dbe e63e b151 8c3f ace0 413f 8311 87bf
00000090: 3a89 363c f3db c03f 1562 00bf 633e 7abf
000000a0: e9ac 59bf 1b16 f93f 20be a83e e84e 0ac0
000000b0: 50a5 dcbf 0b3c f6be fb53 51be 3611 a23f
000000c0: b5e0 443f a821 0b3f 2b76 803f 087f d2be
000000d0: 6ff1 5b3f 42b8 193f 65a5 f3bf 1b3d 863f
000000e0: d5d2 65bf 4bf6 183e cb42 ffbf be1e 793f
000000f0: 0dbc a6be 5dda 63bf 87dd 003f 28fe 533f
00000100: 5ea1 513f 53ed 45bf 2110 c8bf ac64 593d
00000110: 4fad dfbe d8c4 dbbe 4d1a 44be 21ff 63be
00000120: 0720 383d e9f9 8a3f 6a11 373e a447 74bf
00000130: e7f1 bc3f 8d81 2f3f e0cc bbbe bb93 e93f
00000140: 1f19 ccbf 2744 6c3e f1a0 0a3f abdb c9bd
00000150: 72dc 4d3f f5d1 9abf 5f7a 6b3f a112 8abe
00000160: bae1 0c40 4af9 f7bf 36e6 e7bf 1e28 103f
00000170: 196f 2f40 9cac febe c4e9 7d3f d78f 17be
00000180: 801b e43d b3e3 13bf 5057 973e b481 b13f
00000190: 8840 dabf 0e4e 25be 2625 563f 2789 f3be
000001a0: 0f47 6bbf 56ed c4bd 403e 0fc0 f142 713d
000001b0: 4a39 9a3e 9a81 8d3f 5711 c6be 4a98 81be
000001c0: 3741 393e b446 cc3f 7ed6 59bd 3d3e 973f
000001d0: 89aa 7e3e cf71 a7bf 7291 093e d758 0bbe
000001e0: f2fe 1bbe 59af a0bf 0b9d bdbf 13bc 4e3f
000001f0: f7db cf3e 35c0 c83f ee07 c03f 9116 32be
00000200: 5afc 8dbf 47b0 833f e503 8f3e 6257 3a3f
00000210: d1aa 89bf 04f3 8dbe 7ed4 2b3f 32d5 fe3e
00000220: 9829 58c0 685e 673f be8c b63b 064a 5cbe
00000230: 165a 4fbf 9527 1440 f610 9cbf 4e95 253f
00000240: 4033 523e 6b8a 87bd da0f 383f 5e5e df3f
00000250: f31b e6be 0b2f 78bf 1211 5c3f 6c78 c6bf
00000260: 1b24 babc 02e6 313f e8f8 20bf e46e 8f3c
00000270: 63ef 2fbf befc 1c3f fa6a 7d3f a939 87bf
00000280: a648 86bf f201 a6bf c603 c03f 0bed b03f
00000290: 23ef 053f e02a a5bf a233 94be 6bf9 623d
000002a0: be31 8e3f 184c 703f 2b9c 98be d253 083f
000002b0: 4d82 d43f 7458 eb3e 470b 47be 6de4 e53e
000002c0: 9bf3 29bf 67de 01bf dde0 4bbd db89 6dbf
000002d0: c3b2 d43e 0f02 ab3f 097e 8c3f 2b8f 89be
000002e0: 0169 0fbe 4f5a b83e 08af 25bf 85db d23f
000002f0: 02ae 71bf 28c8 11c0 f177 09bf 192a 3cbf
00000300: 3f2b c33f d9be 2a40 ccbf eabb cf7d 6abf
00000310: 3ae7 21bf 2706 b2be ebad 723f fc6e b23f
00000320: 31ca b63f ca55 82bf caff b1be f00e 06c0
00000330: d799 adbf 4ce3 ad3f 3845 a23f 6bd1 b8be
00000340: 5512 7a3f 8b93 13c0 1952 17be b99c 66bf
00000350: 0c61 69bf 0b73 bc3e 4198 d4bd 9f85 0d3f
00000360: 75c3 71bf d6b0 a0bd ae37 cbbf 77f3 a93f
00000370: 6ce8 f6be 896f 133f a4cb 723e b765 f73e
00000380: 2211 67bf 0ddc afbe 5ed0 2e3e 636e 80bf
00000390: d2a5 e9bf bc66 d43f 0ec7 27bf f6d4 16be
000003a0: e6ba 5abf 193e 30bd cff4 36bf 2120 12bf
000003b0: b9a0 2c40 4924 493e 083a cabe 298b af3e
000003c0: c9ba 913d ea75 0bc0 146e c2be 42d0 86be
000003d0: 13ea 773f da9c 503f d74b a83e 38e9 7bbf
000003e0: 99ee 213f 527d 9abf a72a a13e 890b 39bf
000003f0: 47bc ea3d ab75 cd3e d6db c5be c583 d8bf

linear1.weight f4 [128, 20]
0.11318117 -0.13491157 0.28768873 0.14398813 0.13952662 -0.3238547 0.0075843427 0.05943844
0.017762631 -0.084892824 -0.06583982 0.1051388 0.24024913 -0.18510664 0.09627335 0.002982711
0.021857833 0.23780249 0.0826737 -0.15636237 -0.15049645 0.2090961 0.10460688 -0.2671458
-0.09617325 -0.101139635 0.28047946 -0.07735605 0.021941813 -0.26959205 0.09844744 0.0032853514
0.3294909 -0.31085938 -0.20567283 0.15775824 0.047680363 -0.12079013 0.021180075 -0.048749786
-0.3587538 -0.11361093 0.04317482 0.25284111 -0.13474075 -0.2199632 -0.2467141 0.043099023
0.18409261 0.09480716 -0.18515314 0.24386421 0.2311585 -0.22892304 -0.32341018 0.23833844
-0.4083051 0.09320689 0.019659333 0.073285185 0.12284973 0.07986879 0.17131476 0.1106392
0.022354102 0.03783302 0.18695031 -0.30028155 -0.07926318 -0.3105063 0.09659235 -0.034566008
0.1608192 -0.18264046 -0.36508143 0.051493287 -0.2982229 0.05039256 -0.43736753 0.39268127
-0.19314438 -0.0057376996 0.21338187 0.10196912 -0.052225843 -0.032607056 -0.02548984 -0.28034496
-0.04534004 -0.09392201 -0.08066714 0.03928349 -0.10422287 0.21211691 -0.35761887 0.2738455
-0.2146387 -0.29862204 -0.050981365 -0.26455456 0.11002954 -0.030510074 0.40849158 0.06607273
-0.29483628 -0.14162153 0.35887116 -0.251855 0.058945633 -0.03714449 -0.2114467 0.055102617
0.32251456 -0.012212853 -0.07175244 -0.35811225 0.2099513 0.10209149 0.35977244 0.22242367
-0.04700206 -0.26700562 0.04948169 -0.04970787 0.027259424 -0.028202003 -0.30695745 -0.12954299
0.02166105 0.2372092 -0.03784659 0.21992256 -0.19338183 -0.18143328 -0.30385795 -0.0015692146
-0.34609184 -0.04295991 -0.0979699 -0.09208044 0.01910863 0.27685395 -0.00721428 0.32086518
-0.21950974 0.22624701 0.38029033 0.1141108 -0.13758838 0.15980396 0.012402066 0.32836923
-0.3444869 0.1216924 -0.17973617 -0.11980242 -0.05391955 -0.32289046 -0.2881038 -0.062085222
0.21987842 -0.26378828 -0.26356575 0.25200307 -0.22405602 0.32729274 -0.14050385 -0.13516414
-0.030054893 0.08559789 0.05693546 0.3392966 0.21230403 -0.32386932 -0.23842773 0.20894237
-0.07524772 0.2479836 0.23640196 0.18984145 0.2528206 -0.24851993 -0.09119899 0.004697915
0.21106124 -0.26540956 0.30740196 -0.13966352 0.094193734 0.21393558 0.022761768 -0.22516859
0.23883352 -0.025211457 0.06708131 -0.25890207 0.18083085 0.2664326 0.28675383 -0.0566046
0.17978783 -0.005051618 0.41111475 0.03597808 0.3060056 -0.2348229 0.058979947 -0.12956709
0.25089696 -0.18398246 -0.051606134 0.112121955 0.034462515 -0.14670186 0.11762175 -0.12343538
-0.00078433997 -0.13571945 0.049454704 -0.12570374 -0.32133162 -0.22499116 0.13762596 0.06104164
0.15315264 0.19073708 -0.28252175 0.079421476 -0.075300254 0.15316676 -0.21061623 0.15581949
0.21460024 0.29939994 0.22899736 0.19197935 0.331071 -0.17809528 0.04858458 0.13819075
0.012587371 -0.19385344 0.18131867 -0.10374847 0.24303468 -0.069617346 0.07795245 0.06655977
-0.20823699 0.025381578 -0.00071589317 -0.015539707 0.13941155 0.019686906 0.05638105 -0.19966976
00000000: 87cb e73d 4226 0abe f04b 933e a071 133e
00000010: 11e0 0e3e 49d0 a5be 1486 f83b b975 733d
00000020: f082 913c 4adc adbd 07d7 86bd 0353 d73d
00000030: de03 763e 988c 3dbe f62a c53d 9679 433b
00000040: 330f b33c 7f82 733e d450 a93d 751d 20be
00000050: be1b 1abe 4a1d 563e 223c d63d 56c7 88be
00000060: 7bf6 c4bd 4c22 cfbd 019b 8f3e d96c 9ebd
00000070: 51bf b33c f807 8abe d09e c93d 0d4f 573b
00000080: 08b3 a83e f628 9fbe e69b 52be 608b 213e
00000090: 7c4c 433d d160 f7bd d681 ad3c dbad 47bd
000000a0: 94ae b7be d9ac e8bd 14d8 303d 6474 813e
000000b0: 7bf9 09be 083e 61be 9fa2 7cbe 9a88 303d
000000c0: c682 3c3e 422a c23d c998 3dbe 8ab7 793e
000000d0: d0b4 6c3e cd6a 6abe 0596 a5be fe0e 743e
000000e0: 5e0d d1be 41e3 be3d 9c0c a13c 8b16 963d
000000f0: a498 fb3d 4092 a33d 236d 2f3e ce96 e23d
00000100: f31f b73c ccf6 1a3d e76f 3f3e 81be 99be
00000110: bc54 a2bd affa 9ebe 36d2 c53d 1695 0dbd
00000120: caad 243e 1a06 3bbe f4eb babe a0ea 523d
00000130: acb0 98be 6e68 4e3d a3ee dfbe 850d c93e
00000140: a4c7 45be 5003 bcbb c780 5a3e 30d5 d03d
00000150: c4ea 55bd fa8e 05bd 12d0 d0bc 6089 8fbe
00000160: 7ab6 39bd 2f5a c0bd d034 a5bd bae7 203d
00000170: cd72 d5bd 2d35 593e d219 b7be 7a35 8c3e
00000180: 3fca 5bbe fde4 98be d6d1 50bd b273 87be
00000190: 2b57 e13d 43f0 f9bc cf25 d13e 2451 873d
000001a0: c8f4 96be 3c05 11be f6bd b73e 23f3 80be
000001b0: fa70 713d d224 18bd 7c85 58be 48b3 613d
000001c0: a120 a53e 6b18 48bc f1f2 92bd 7d5a b7be
000001d0: 79fd 563e 5815 d13d 1834 b83e 08c3 633e
000001e0: 3b85 40bd f6b4 88be 50ad 4a3d 7b9a 4bbd
000001f0: 284f df3c e307 e7bc 8729 9dbe eba6 04be
00000200: 8472 b13c f8e6 723e 0705 1bbd 6133 613e
00000210: e305 46be a5c9 39be 4593 9bbe 1bae cdba
00000220: f332 b1be bbf6 2fbd 71a4 c8bd ab94 bcbd
00000230: b489 9c3c cdbf 8d3e c465 ecbb 7148 a43e
00000240: 29c7 60be 4cad 673e 6ab5 c23e ecb2 e93d
00000250: f8e3 0cbe a6a3 233e 0932 4b3c 0320 a83e
00000260: 9660 b0be dd39 f93d c20c 38be f95a f5bd
00000270: bfda 5cbd e651 a5be 5782 93be 134d 7ebd
00000280: cf27 613e 420f 87be 17f2 86be 8c06 813e
00000290: f16e 65be ea92 a73e 3ee0 0fbe 7868 0abe
000002a0: ae35 f6bc f24d af3d 2835 693d 49b8 ad3e
000002b0: 3a66 593e 33d2 a5be 6626 74be fdf4 553e
000002c0: 7a1b 9abd 6aef 7d3e 5b13 723e cc65 423e
000002d0: b471 813e 027c 7ebe 89c6 babd f8f0 993b
000002e0: 7020 583e c3e3 87be ca63 9d3e f403 0fbe
000002f0: a5e8 c03d ee11 5b3e e376 ba3c 9892 66be
00000300: c690 743e 4288 cebc ed61 893d d08e 84be
00000310: b92b 393e db69 883e 66d1 923e 3ada 67bd
00000320: 4d1a 383e 0b88 a5bb a27d d23e c05d 133d
00000330: c4ac 9c3e 6a75 70be f594 713d 3cad 04be
00000340: 9175 803e e665 3cbe f460 53bd 32a0 e53d
00000350: 9128 0d3d 0339 16be ace3 f03d b0cb fcbd
00000360: 2a9c 4dba 0afa 0abe 0491 4a3d 7bb8 00be
00000370: 9485 a4be 1564 66be d2ed 0c3e cc06 7a3d
00000380: 0cd4 1c3e 9550 433e b1a6 90be baa7 a23d
00000390: 0537 9abd bfd7 1c3e c8ab 57be 258f 1f3e
000003a0: 2ac0 5b3e f34a 993e 497e 6a3e 3c96 443e
000003b0: 2382 a93e 9c5e 36be a000 473d e081 0d3e
000003c0: 433b 4e3c 8481 46be 9aab 393e 147a d4bd
000003d0: 15de 783e 8a93 8ebd 89a5 9f3d 7d50 883d
000003e0: 143c 55be 07ed cf3c c7aa 3bba 419a 7ebc
000003f0: e7c1 0e3e 6f46 a13c d1ef 663d 3b76 4cbe

linear1.bias f4 [128]
-0.07625918 0.04791108 0.267785 -0.05386694 -0.1391103 -0.0034781673 -0.09574526 0.4444451
-0.0478414 -0.1673116 0.4327229 0.14886907 -0.21029098 -0.112039864 0.28566173 -0.0036111085
0.18792918 -0.04954449 -0.114126444 0.2757406 0.30979493 0.12247011 0.026319474 0.12735714
0.098884724 0.23414212 0.010079024 0.25014946 -0.014859565 0.29490197 0.0513126 -0.18149725
0.0058844015 -0.09854464 -0.008915987 -0.03503267 -0.039101515 -0.17956753 0.099782236 0.22395168
0.014011215 0.027139863 0.1739689 0.28472483 0.028961776 0.14924254 0.2981868 -0.08602133
0.28532752 -0.18759258 0.2841106 0.4012743 0.018975353 0.08064735 -0.05034524 0.0752402
-0.06068991 0.29359105 0.124999054 0.1275105 -0.032729585 0.07040639 -0.06521577 0.064838804
0.103302106 0.22890124 -0.025503092 -0.12367401 -0.046312418 0.23398511 -0.12761182 0.19702986
-0.11940766 0.28941214 0.12898113 -0.065338545 0.11237893 0.030374102 -0.07375451 0.23904783
0.07304993 0.16620041 -0.09403716 0.027520634 0.2515555 0.068798095 0.04145098 0.01803106
0.34778145 -0.104134396 0.28422108 0.31710804 0.11938921 0.3425735 0.23509352 0.22541226
0.36335462 -0.15766284 0.22683679 0.33546612 0.020082507 -0.095473476 0.16523117 0.2349271
-0.036396258 0.15777916 0.052622415 0.13931704 0.00862151 0.00812115 0.0032520974 0.11782754
0.103121445 0.0506151 0.22357708 0.2883402 0.1651493 0.16247012 -0.07418103 0.13368307
0.0892981 0.23205502 -0.14176762 -0.07350072 0.22899903 0.1595287 0.33923566 0.02755412
00000000: c62d 9cbd 693e 443d 1e1b 893e 95a3 5cbd
00000010: ee72 0ebe f7f1 63bb 1716 c4bd 4f8e e33e
00000020: 58f5 43bd bb53 2bbe db8d dd3e 2271 183e
00000030: 8556 57be 2875 e5bd 4142 923e 59a8 6cbb
00000040: 8270 403e 2aef 4abd 20bb e9bd df2d 8d3e
00000050: 719d 9e3e 9cd1 fa3d f09b d73c e969 023e
00000060: 1384 ca3d f4c2 6f3e 7e22 253c 9713 803e
00000070: 8875 73bc 64fd 963e 292d 523d 6ada 39be
00000080: f0d1 c03b c6d1 c9bd 5c14 12bc 6b7e 0fbd
00000090: e928 20bd 8de0 37be a15a cc3d 9753 653e
000000a0: 4c8f 653c 6b54 de3c e724 323e 74c7 913e
000000b0: 3f41 ed3c 09d3 183e f1ab 983e f32b b0bd
000000c0: 7316 923e 4518 40be f276 913e d373 cd3e
000000d0: 3372 9b3c 702a a53d cf36 4ebd 8917 9a3d
000000e0: fc95 78bd 9151 963e 81ff ff3d 1d92 023e
000000f0: 750f 06bd 3a31 903d d88f 85bd 35ca 843d
00000100: 0e90 d33d 1665 6a3e dceb d0bc cd48 fdbd
00000110: 17b2 3dbd cb99 6f3e acac 02be 32c2 493e
00000120: 018c f4bd d42d 943e a113 043e 37d0 85bd
00000130: ed26 e63d 1cd3 f83c 9b0c 97bd f4c8 743e
00000140: 349b 953d 7130 2a3e 8e96 c0bd f472 e13c
00000150: e2cb 803e 04e6 8c3d 81c8 293d e0b5 933c
00000160: 6910 b23e 6a44 d5bd 6d85 913e fc5b a23e
00000170: 5582 f43d cb65 af3e 5bbc 703e 79d2 663e
00000180: 9e09 ba3e 5e72 21be e747 683e 37c2 ab3e
00000190: 1284 a43c 9987 c3bd 5c32 293e bb90 703e
000001a0: 3e14 15bd dc90 213e 9a8a 573d 20a9 0e3e
000001b0: 3c41 0d3c 920e 053c 2421 553b 914f f13d
000001c0: 5631 d33d c751 4f3d 64f1 643e 54a1 933e
000001d0: e61c 293e 915e 263e 39ec 97bd 37e4 083e
000001e0: ece1 b63d d59f 6d3e 882b 11be 8c87 96bd
000001f0: b97e 6a3e 7e5b 233e 4cb0 ad3e 2eb9 e13c

linear2.weight f4 [79, 128]
0.09199282 -0.12155514 0.050449356 -0.21392187 -0.04444971 -0.27354118 -0.09513554 -0.19970575
-0.0412471 -0.15156643 0.084055245 -0.15237255 -0.05724494 -0.07312818 0.007762669 -0.043470457
0.07591202 0.13772802 0.16314349 -0.11405943 -0.1902957 0.027734006 -0.13598648 0.07161681
0.037877247 0.05867652 0.5138411 0.39869174 0.043619458 0.029730182 0.15990041 0.13051814
0.34726954 0.3354151 -0.08803561 0.26597798 -0.24058174 0.020317854 -0.2203908 0.3456175
-0.21026187 0.042856153 -0.24056698 0.1820923 -0.05045117 -0.071854554 -0.15588818 -0.2287151
-0.011892315 -0.07137838 0.18752153 -0.010143432 -0.012449658 -0.074084334 -0.21184729 -0.14266954
0.13154279 -0.06463351 -0.09145236 0.45510426 -0.07132863 -0.08321878 -0.10126599 0.100214176
0.035965603 -0.080118716 0.22676574 -0.10099912 0.11588471 0.113270685 -0.014233573 0.05619532
0.027631776 0.066824794 0.19085878 0.14017463 0.13790834 0.11683489 -0.0787211 0.020113783
-0.050211273 0.12586217 0.0659929 0.20805115 0.5704448 0.12604254 -0.0953791 -0.036836024
-0.056022268 -0.11520739 0.079756394 -0.19481719 0.4598158 -0.061433084 -0.17481358 0.0443274
0.10804642 -0.022122659 0.28565827 0.6826648 -0.0277799 0.326151 0.07434938 -0.0711091
0.14585981 0.14642312 0.14126621 0.06069947 0.15197332 -0.102628075 0.17474736 0.028668746
-0.11912528 -0.14263709 -0.2805732 -0.10140393 -0.08063225 0.05359007 0.07789381 -0.053827535
-0.08025658 -0.41680923 0.21922447 -0.2079624 -0.27210772 -0.034236174 0.005733561 -0.050897907
0.009864538 0.029308217 -0.052222077 -0.028612476 -0.10147516 0.04022737 -0.053629756 -0.006018176
0.0043867948 -0.060647886 -0.09922936 -0.097397685 -0.05901823 0.043540798 -0.10641704 0.02888568
-0.09687778 0.009440313 -0.047535494 -0.0039725737 -0.03830603 -0.034787126 0.0458964 -0.110925466
0.058314305 0.04651456 -0.09516157 -0.0020944749 -0.05227797 -0.085584074 0.0143639315 0.00395721
-0.10464329 -0.08662899 0.04197886 -0.09549783 -1.9811241e-05 0.052592054 -0.020375416 -0.0876761
0.026638221 0.03242563 -0.031299576 -0.07259259 0.061091416 -0.09169882 -0.0923043 -0.021852188
-0.10075504 -0.024371967 -0.06480762 -0.026139127 -0.018146489 0.022583151 -0.067309916 0.0038093461
0.011645982 0.01974888 -0.07352757 -0.059999846 -0.09986459 -0.09021603 0.06986272 -0.05409007
-0.011380892 -0.09932183 0.018031862 -0.00809216 0.001796916 -0.097235166 0.02468624 -0.030464754
0.0069760857 -0.0088167265 -0.051106583 -0.03603232 -0.015574447 0.06258374 0.058300216 -0.07945772
0.07304997 0.018458046 0.0063476223 0.04725898 -0.024787372 -0.0063632713 -0.011641816 0.00412228
0.0020718055 -0.06037186 0.04522005 -0.080286235 -0.0068674423 -0.088519625 -0.027035322 0.035525765
-0.010826628 -0.06471558 0.017956026 -0.019499812 0.04675866 0.040989008 0.0060434095 0.01640417
-0.09770491 -0.07841607 -0.08341568 -0.061240457 0.05834196 -0.046359647 0.014583516 0.03526478
-0.11404338 -0.004213912 0.041026287 -0.053238556 0.03907135 0.013590406 0.027214918 -0.031021917
-0.025419554 -0.101394996 0.0028123613 0.047762148 0.0035322872 -0.11277816 -0.072241664 -0.09542887
00000000: bb66 bc3d e7f1 f8bd fca3 4e3d 560e 5bbe
00000010: e610 36bd 970d 8cbe 6cd6 c2bd aa7f 4cbe
00000020: b8f2 28bd 3b34 1bbe 2825 ac3d 8d07 1cbe
00000030: ac79 6abd 3ac4 95bd fd5d fe3b 140e 32bd
00000040: c377 9b3d 9308 0d3e 160f 273e fe97 e9bd
00000050: e0dc 42be 6d32 e33c 0a40 0bbe d6ab 923d
00000060: 2c25 1b3d ca56 703d 178b 033f 5321 cc3e
00000070: 51aa 323d b68c f33c efbc 233e 8ca6 053e
00000080: 50cd b13e 87bb ab3e 044c b4bd 442e 883e
00000090: 0f5b 76be a171 a63c 20ae 61be c7f4 b03e
000000a0: e34e 57be ef89 2f3d 3157 76be 6776 3a3e
000000b0: e3a5 4ebd 7b28 93bd 27a1 1fbe 4b34 6abe
000000c0: fcd7 42bc d42e 92bd a505 403e a330 26bc
000000d0: a6f9 4bbc 87b9 97bd 7fee 58be f717 12be
000000e0: 27b3 063e 935e 84bd 604b bbbd 6d03 e93e
000000f0: bf14 92bd 9c6e aabd 8b64 cfbd 173d cd3d
00000100: ab50 133d 4815 a4bd 4735 683e a0d8 cebd
00000110: f654 ed3d 76fa e73d ef33 69bc 102d 663d
00000120: 095c e23c 70db 883d 7c70 433e f089 0f3e
00000130: d837 0d3e 2147 ef3d 8738 a1bd a9c5 a43c
00000140: 56aa 4dbd 03e2 003e 4927 873d 5c0b 553e
00000150: ac08 123f 4c11 013e 1e56 c3bd 5fe1 16bd
00000160: 9b77 65bd daf1 ebbd 5257 a33d 287e 47be
00000170: fa6c eb3e 42a1 7bbd 5502 33be a690 353d
00000180: 7147 dd3d 943a b5bc cd41 923e 1fc3 2e3f
00000190: ac92 e3bc 44fd a63e 7d44 983d a6a1 91bd
000001a0: 465c 153e f1ef 153e 17a8 103e 02a0 783d
000001b0: e59e 1b3e ab2e d2bd f9f0 323e b8da ea3c
000001c0: f4f7 f3bd 750f 12be 4aa7 8fbe ddac cfbd
000001d0: 8522 a5bd 4381 5b3d ca86 9f3d 437a 5cbd
000001e0: 905d a4bd 0568 d5be 617c 603e 18f4 54be
000001f0: b451 8bbe 3b3b 0cbd 98e0 bb3b 537a 50bd
00000200: df9e 213c c917 f03c d1e6 55bd b664 eabc
00000210: 35d2 cfbd 74c5 243d e0aa 5bbd 1f34 c5bb
00000220: 1abf 8f3b eb69 78bd c338 cbbd 7078 c7bd
00000230: 19bd 71bd d657 323d 2df1 d9bd a9a1 ec3c
00000240: dc67 c6bd 8bab 1a3c 94b4 42bd 5d2c 82bb
00000250: c9e6 1cbd f27c 0ebd ddfd 3b3d e42c e3bd
00000260: fbda 6e3d 0d86 3e3d 12e4 c2bd 7543 09bb
00000270: 6d21 56bd b446 afbd b256 6b3c 7cab 813b
00000280: 394f d6bd 8a6a b1bd 06f2 2b3d 5e94 c3bd
00000290: 5130 a6b7 c46a 573d 58ea a6bc 878f b3bd
000002a0: 6638 da3c bdd0 043d fc33 00bd 6cab 94bd
000002b0: fe3a 7a3d 97cc bbbd 090a bdbd 5c03 b3bc
000002c0: a958 cebd b8a7 c7bc dcb9 84bd b921 d6bc
000002d0: f2a7 94bc 4d00 b93c c8d9 89bd 39a6 793b
000002e0: cace 3e3c 67c8 a13c 9f95 96bd 66c2 75bd
000002f0: ce85 ccbd 2fc3 b8bd 3014 8f3d 8d8d 5dbd
00000300: ec76 3abc 3e69 cbbd 8eb7 933c fb94 04bc
00000310: 7f86 eb3a 3b23 c7bd cc3a ca3c 3891 f9bc
00000320: a697 e43b 0874 10bc 2355 51bd a096 13bd
00000330: f72b 7fbc e72b 803d 35cc 6e3d bbba a2bd
00000340: 399b 953d 5435 973c b7ff cf3b a292 413d
00000350: e30e cbbc fd82 d0bb 51bd 3ebc 3114 873b
00000360: 21c7 073b 7c48 77bd a938 393d 1c6d a4bd
00000370: 4808 e1bb c749 b5bd 2e79 ddbc 7783 113d
00000380: 2b62 31bc 9a89 84bd 8418 933c 12be 9fbc
00000390: 0286 3f3d 17e4 273d cb07 c63b 0a62 863c
000003a0: 8319 c8bd 9b98 a0bd d7d5 aabd 46d7 7abd
000003b0: fbf7 6e3d 9de3 3dbd b3ef 6e3c cd71 103d
000003c0: 938f e9bd db14 8abb 2e0b 283d ac10 5abd
000003d0: 4809 203d 4baa 5e3c d2f1 de3c ad21 febc
000003e0: ab3c d0bc 2ea8 cfbd 984f 383b 3ea2 433d
000003f0: f27d 673b 3cf8 e6bd 70f3 93bd 3670 c3bd

linear2.bias f4 [79]
0.058039766 -0.048508156 0.13629743 0.074946046 0.10181494 -0.011959445 -0.06653074 -0.07560434
0.05129202 -0.07000881 -0.07970542 -0.030627342 -0.08676553 -0.12586816 -0.0607731 0.034014363
-0.14230733 -0.100655936 -0.018699422 -0.0848548 0.18472639 0.1640915 0.06994214 0.10965417
0.09770676 0.19398862 0.11812895 -0.047378246 -0.038857788 0.079377785 0.014778537 -0.0018405722
0.07009627 0.043628093 0.08862383 0.011219065 -0.008044284 0.011387805 0.08386556 0.050054282
-0.046694275 -0.029577902 -0.0912155 -0.049349226 0.002739033 -0.047507472 0.013023063 -0.03685391
0.03026195 0.01591986 -0.04363545 0.04877169 -0.11999109 -0.0031698977 -0.07157848 0.00068738376
-0.0009701231 0.0572514 0.03175328 0.002587512 0.06889509 -0.04952398 0.03519756 -0.0004249783
-0.0017772153 0.0056792153 0.027233541 -0.023081645 -0.09768792 0.036329165 0.11592906 -0.057594243
0.035544995 0.047525223 0.12913014 0.08470528 0.038189523 -0.05413636 -0.021963647
00000000: 1bbb 6d3d 7db0 46bd 8e91 0b3e 507d 993d
00000010: 5a84 d03d 8cf1 43bc 4541 88bd 73d6 9abd
00000020: 9517 523d c760 8fbd 983c a3bd 31e6 fabc
00000030: 20b2 b1bd 95e3 00be 37ed 78bd a552 0b3d
00000040: 03b9 11be b324 cebd 882f 99bc 5ac8 adbd
00000050: ea28 3d3e 9a07 283e d33d 8f3d 5e92 e03d
00000060: 7b1a c83d f4a4 463e 97ed f13d b10f 42bd
00000070: 5829 1fbd d290 a23d ad21 723c 5b3f f1ba
00000080: a28e 8f3d 5fb3 323d 6980 b53d 2bd0 373c
00000090: 2ccc 03bc eb93 3a3c b5c1 ab3d b805 4d3d
000000a0: 7f42 3fbd 5b4d f2bc 31cf babd 6a22 4abd
000000b0: 5981 333b 3297 42bd af5e 553c 20f4 16bd
000000c0: e9e7 f73c 5e6a 823c 16bb 32bd d3c4 473d
000000d0: e3bd f5bd 0fbe 4fbb bd97 92bd 8b31 343a
000000e0: dc4f 7eba 7280 6a3d ba0f 023d 3f93 293b
000000f0: de18 8d3d a8d9 4abd 512b 103d 9fcf deb9
00000100: 73f1 e8ba b618 ba3b e018 df3c b815 bdbc
00000110: 9b10 c8bd e4cd 143d 376c ed3d f1e7 6bbd
00000120: a197 113d cfa9 423d b13a 043e f679 ad3d
00000130: 9e6c 1c3d 16be 5dbd 1bed b3bc
