module_2/8gram.pth (torch, 87482 bytes, 5 tensors)

embeddings.weight f4 [79, 10]
1.110321 -0.5001652 0.21299641 -0.021369342 -2.4386678 -0.06923461 -0.75117654 0.9121907
0.6954163 -0.12262455 -0.08125551 0.025836669 -0.43635234 -0.030645244 -0.57496595 0.61012197
-1.1115205 0.963054 -0.35953766 0.76608527 0.8745184 1.2831459 0.15775695 2.3748438
-2.2758274 1.2624894 -0.7837958 -1.1469247 0.5023764 0.09616281 -0.13641232 -0.02525822
-0.03372989 -0.16473424 -0.8957572 0.3191364 0.642114 -1.8177966 0.88536316 -0.90665156
-0.50901604 -1.7267752 1.1675109 -1.8405541 -1.0771583 0.6028802 -1.0734844 -0.85474694
0.1244313 -0.35903636 -0.86538637 -1.2603556 2.2449992 2.2344985 0.03694513 0.13896094
1.38113 2.7633069 -1.6117319 -0.07886171 1.5859078 -0.9023439 0.6523321 1.1540756
0.3633605 -0.7472833 -0.28736648 0.52033323 1.0463188 1.0373969 0.053887066 0.16331804
1.9002066 0.7028451 0.70667076 -0.31836808 -0.8211877 -0.9154923 -0.51774764 -2.5612025
0.31806332 -0.6877077 1.2195095 -1.0869343 0.5774568 0.773271 -1.8739078 -0.66483694
0.9188185 -0.4694797 -0.6963955 -0.77583665 -0.3945086 -1.548409 -1.4848282 -1.3315996
1.3129382 -1.4200169 0.7030922 -1.798993 1.6518058 1.679224 0.94297147 -0.7970048
0.89981514 -0.38648525 1.2886943 0.51575464 0.94990873 -0.37680963 -0.014291791 -0.13810268
-0.9277858 0.81530935 0.629852 -0.43947837 0.38817963 2.2089715 -0.9262045 0.33595234
-0.35967913 1.8402116 -2.027139 0.43691126 1.7222035 0.14803189 1.3831078 0.38838902
2.9997666 -0.75069237 0.6194211 -1.6654782 -1.1857246 -0.8559636 -0.60483277 -0.7893358
-0.91098285 0.13520986 -0.17357731 -0.66576904 2.099483 -0.18829031 2.5257435 0.52333593
-0.2929738 -2.1630154 1.6592526 0.1749117 0.26454145 -0.14759736 -1.3521711 -1.2006986
-1.2271879 1.0767152 -1.0806326 0.13542537 -1.1420224 0.51670736 -0.56818634 -0.54856783
0.5119491 -0.2675918 0.7973159 0.18694602 -1.4980701 3.1018488 1.2698436 0.20142429
-0.11070453 1.0514206 -1.410434 -0.9865249 -1.2356018 -0.4124556 0.3702754 -0.60424566
-1.6954031 -0.18606819 0.09579421 0.81033194 0.66345966 -0.03386654 -1.287266 0.560564
0.50341654 0.68617785 0.53576815 1.0170488 -0.9556184 -0.75278944 -1.1059607 -0.53957117
-0.85617834 -1.0161275 -1.0046257 -0.1745228 -0.35142812 -0.31245688 -0.2949704 -0.57518536
-0.6280649 -0.7449534 0.44590908 -2.3168292 0.31634936 0.16882102 -0.8201184 0.4568785
-0.06034391 -0.36791614 -2.0299597 -0.019202998 -0.7307466 -0.70241934 -0.7373153 -1.9053855
-0.68713903 0.022943841 -0.57712704 -1.0312358 2.4780712 -0.23868792 -0.14220895 0.3561527
0.42610204 -0.9526962 -0.20674014 0.83050305 0.22462252 -0.10892636 0.7784408 1.0764922
1.2132869 0.8327697 -0.82754135 0.6728745 0.5833515 1.0122553 -0.45646402 -1.026232
0.10355569 -0.10058221 0.66350144 -1.1472591 -2.5887845 -0.49716598 -1.003436 0.2856934
0.46449536 -0.6136171 0.39603117 -0.4973899 0.07539517 -1.6803428 0.029310197 -0.57501876
00000000: 001f 8e3f d40a 00bf bb1b 5a3e c20e afbc
00000010: 2213 1cc0 e0ca 8dbd 1b4d 40bf 5485 693f
00000020: cd06 323f 9422 fbbd 4a69 a6bd 6ca7 d33c
00000030: 9369 dfbe bc0b fbbc f830 13bf f430 1c3f
00000040: 4e46 8ebf b58a 763f 5215 b8be 2a1e 443f
00000050: 70e0 5f3f 203e a43f 0a8b 213e 71fd 1740
00000060: 28a7 11c0 4199 a13f d7a6 48bf 6ece 92bf
00000070: bd9b 003f 02f1 c43d acaf 0bbe 54ea cebc
00000080: 5a28 0abd 18b0 28be 5850 65bf d965 a33e
00000090: 9561 243f 8fad e8bf 29a7 623f 511a 68bf
000000a0: e04e 02bf f806 ddbf ff70 953f 4797 ebbf
000000b0: 53e0 89bf 5b56 1a3f f067 89bf b2d0 5abf
000000c0: d6d5 fe3d 9dd3 b7be f689 5dbf 5553 a1bf
000000d0: 11ae 0f40 0602 0f40 c753 173d c74b 0e3e
000000e0: dec8 b03f 05da 3040 3b4d cebf 4082 a1bd
000000f0: 07ff ca3f 0300 67bf 3dff 263f c0b8 933f
00000100: 630a ba3e f54d 3fbf b321 93be 8f34 053f
00000110: c6ed 853f 6cc9 843f afb8 5c3d d83c 273e
00000120: f839 f33f a8ed 333f 60e8 343f 2401 a3be
00000130: 5b39 52bf b45d 6abf 1c8b 04bf beea 23c0
00000140: 32d9 a23e 9d0d 30bf e318 9c3f aa20 8bbf
00000150: 35d4 133f 17f5 453f 36dc efbf c132 2abf
00000160: b037 6b3f a55f f0be fa46 32bf 3b9d 46bf
00000170: 08fd c9be 4432 c6bf da0e bebf db71 aabf
00000180: 5c0e a83f 1dc3 b5bf dafd 333f 6745 e6bf
00000190: 5f6e d33f d0f0 d63f 9466 713f 8208 4cbf
000001a0: 495a 663f 65e1 c5be eff3 a43f 7f08 043f
000001b0: 382d 733f 31ed c0be 1e28 6abc ca6a 0dbe
000001c0: 5f83 6dbf 1db8 503f fb3d 213f 4f03 e1be
000001d0: 7bbf c63e ca5f 0d40 bd1b 6dbf f201 ac3e
000001e0: dd27 b8be 0e8c eb3f a5bc 01c0 d5b2 df3e
000001f0: 2a71 dc3f ac95 173e ad09 b13f edda c63e
00000200: 2dfc 3f40 602d 40bf 6292 1e3f 642e d5bf
00000210: d3c5 97bf 6e20 5bbf 52d6 1abf e911 4abf
00000220: 2c36 69bf 7474 0a3e 40be 31be d76f 2abf
00000230: ee5d 0640 2dcf 40be c8a5 2140 58f9 053f
00000240: a900 96be d86e 0ac0 6462 d43f 0d1c 333e
00000250: fa71 873e c323 17be f113 adbf 7eb0 99bf
00000260: 7e14 9dbf ced1 893f 2b52 8abf f3ac 0a3e
00000270: ca2d 92bf ef46 043f a974 11bf f16e 0cbf
00000280: 190f 033f cb01 89be e51c 4c3f c76e 3f3e
00000290: c3c0 bfbf b184 4640 3c8a a23f 2b42 4e3e
000002a0: 0eb9 e2bd f394 863f 1a89 b4bf e58c 7cbf
000002b0: 3328 9ebf 612d d3be bd94 bd3e d8af 1abf
000002c0: f802 d9bf a988 3ebe c12f c43d ea71 4f3f
000002d0: 7ed8 293f a4b7 0abd 22c5 a4bf 1f81 0f3f
000002e0: e8df 003f 5aa9 2f3f 1a28 093f a82e 823f
000002f0: 68a3 74bf cfb6 40bf 1f90 8dbf 5621 0abf
00000300: 812e 5bbf 7710 82bf 9397 80bf 1bb6 32be
00000310: 63ee b3be 59fa 9fbe 5c06 97be 593f 13bf
00000320: dcc8 20bf 44b5 3ebf 324e e43e ee46 14c0
00000330: 8bf8 a13e 6bdf 2c3e 48f3 51bf fbeb e93e
00000340: 2d2b 77bd 815f bcbe dcea 01c0 9b4f 9dbc
00000350: 3612 3bbf c1d1 33bf b2c0 3cbf ace3 f3bf
00000360: 58e8 2fbf b9f4 bb3c 99be 13bf 89ff 83bf
00000370: b898 1e40 9b6a 74be 399f 11be a659 b63e
00000380: 0c2a da3e e6e3 73bf b0b3 53be d99b 543f
00000390: 7203 663e c914 dfbd e547 473f 7fca 893f
000003a0: fc4c 9b3f 6530 553f c0d9 53bf 8141 2c3f
000003b0: 8656 153f 9591 813f a7b5 e9be 925b 83bf
000003c0: 0115 d43d 0cfe cdbd 3bdb 293f 63d9 92bf
000003d0: a5ae 25c0 8a8c febe 9770 80bf 6846 923e
000003e0: 56d2 ed3e 0316 1dbf 99c4 ca3e e4a9 febe
000003f0: c868 9a3d 7915 d7bf f01b f03c 6e34 13bf

linear1.weight f4 [128, 80]
0.002680702 -0.048656892 -0.07588488 -0.0593508 -0.15005443 0.10715525 0.09534108 -0.050162386
0.109297134 -0.010578108 0.026030088 -0.023583112 -0.06752611 0.00010801678 0.0032404822 0.026708959
-0.019565465 0.07913917 -0.012295109 -0.09636782 -0.047592677 0.080902025 0.09119304 0.03471923
-0.012427474 -0.02985139 0.055217084 0.005308501 -0.09417817 -0.023724234 0.09056208 -0.03206116
0.18873088 -0.11321432 0.068878375 -0.031036159 0.0024396265 -0.012133116 0.031252235 -0.05496715
0.11792841 -0.032122113 -0.028241796 -0.07414035 -0.09346759 -0.0236528 -0.025260523 -0.071832515
-0.013348877 -0.104585186 0.012422069 -0.04811257 -0.07943161 0.102887265 -0.13903761 0.04073456
0.030302519 0.016432172 -0.08133596 0.0052088327 0.0011538751 -0.090711966 -0.04900032 0.05404326
0.08972259 -0.08877067 0.13361378 0.11834956 0.12952535 0.007937637 0.045924626 0.039290234
0.046424363 -0.03507822 -0.07707682 -0.12930451 0.05645756 0.04469424 0.03215157 -0.07917304
0.031285025 -0.08068239 -0.056648396 -0.14277574 -0.067774676 0.11568446 -0.04689048 -0.017084902
0.078588024 0.03949476 0.01940938 -0.030305129 0.0581452 0.0057152524 -0.10222251 -0.08146001
0.1444287 -0.068416975 -0.07580475 -0.05102162 -0.056752168 0.0709436 -0.013232481 0.02025304
-0.15707685 -0.060986105 -0.093752295 0.048237026 0.054861058 -0.13854793 -0.036580425 0.009797971
0.09707482 -0.006766995 -0.053414416 0.052710112 -0.031943627 0.135365 -0.17172527 0.109678306
-0.04133236 -0.044186544 0.06738535 0.07590574 -0.108015016 -0.08012279 -0.026556492 -0.08544676
-0.05061861 0.03805577 -0.011754313 -0.04817447 -0.040530328 0.030261071 0.07312269 0.03793529
-0.06789193 0.024545813 -0.031892434 -0.07741626 -0.08937267 0.004538466 0.13214047 -0.06044084
0.025728395 0.1441387 -0.00027417135 0.0013790096 0.040312394 0.023483027 0.010463856 -0.01086525
0.04876078 0.07029579 -0.0055150515 0.04961663 -0.17330918 0.023171615 0.08343344 0.10608805
0.11050485 -0.19437204 -0.080171764 -0.13602339 -0.03620211 0.049494073 -0.17293218 0.060093313
-0.06578572 -0.009625542 0.12116421 0.07778061 0.07229798 0.002292222 -0.13546279 -0.032179445
0.03221975 0.09723805 -0.036873918 0.009429206 -0.023176786 0.04630202 -0.09426368 0.040969364
-0.010645215 0.1355462 -0.14787899 0.15051018 -0.09655731 0.11039314 0.062862195 -0.012044311
0.02222319 -0.040620405 -0.1544811 0.18069749 0.023887372 -0.20072375 -0.005387663 0.02611075
0.072972074 -0.0062076827 -0.03022151 -0.1119289 -0.11356755 0.049304724 0.009979218 0.06690616
-0.032130197 0.072693855 -0.091772564 0.023418248 -0.003399364 0.014995785 0.04303751 -0.06713059
0.030252144 0.20164709 0.029629586 0.059479684 0.0036003673 -0.06318525 0.080997825 -0.06561285
0.0019635926 0.041392393 0.022307528 0.04124611 -0.020331323 -0.058847778 -0.12016965 0.009610353
-0.016325435 -0.109414965 -0.07230184 -0.10467062 0.030463398 0.011370458 -0.059787612 -0.07799332
0.0006268048 0.00080467673 -0.036030106 -0.11092261 -0.02699477 -0.028170776 0.012483582 -0.106268026
-0.031602576 -0.013797936 -0.057024267 0.07039784 -0.03973315 -0.06863846 -0.17204772 0.10204476
00000000: b7ae 2f3b 734c 47bd 8869 9bbd d319 73bd
00000010: dea7 19be 3674 db3d 2f42 c33d 1377 4dbd
00000020: 2dd7 df3d cd4f 2dbc 0d3d d53c 5f31 c1bc
00000030: 214b 8abd 1187 e238 455e 543b bfcc da3c
00000040: c147 a0bc b813 a23d 6d71 49bc 7e5c c5bd
00000050: 8af0 42bd f6af a53d 6bc3 ba3d c035 0e3d
00000060: 9b9c 4bbc e78a f4bc 4f2b 623d eff2 ad3b
00000070: 7ce0 c0bd 5359 c2bc 9d78 b93d 9052 03bd
00000080: ab42 413e e9dc e7bd 1b10 8d3d 8b3f febc
00000090: 24e2 1f3b fac9 46bc 5802 003d 3c25 61bd
000000a0: 7384 f13d 7a92 03bd 575b e7bc e5d6 97bd
000000b0: f06b bfbd 84c3 c1bc 28ef cebc ed1c 93bd
000000c0: 40b5 5abc c230 d6bd ef85 4b3c b011 45bd
000000d0: 0aad a2bd 8fb6 d23d e05f 0ebe 48d9 263d
000000e0: fd3c f83c c39c 863c 7893 a6bd dbae aa3b
000000f0: a03d 973a 32c7 b9bd 8fb4 48bd 775c 5d3d
00000100: 7ac0 b73d 66cd b5bd 0dd2 083e 4161 f23d
00000110: 4ba2 043e dd0c 023c 761b 3c3d ccee 203d
00000120: 7927 3e3d 2eae 0fbd 74da 9dbd 6768 04be
00000130: 0b40 673d 4f11 373d 5db1 033d 7a25 a2bd
00000140: ba24 003d cf3c a5bd 2608 68bd ce33 12be
00000150: 73cd 8abd f9eb ec3d 3b10 40bd a3f5 8bbc
00000160: c2f2 a03d 42c5 213d 6c00 9f3c 7642 f8bc
00000170: a929 6e3d 0347 bb3b 095a d1bd 81d4 a6bd
00000180: 1ee5 133e 331e 8cbd 853f 9bbd 0cfc 50bd
00000190: f674 68bd e14a 913d 0ccd 58bc b4e9 a53c
000001a0: c1d8 20be 91cc 79bd 3401 c0bd 3094 453d
000001b0: fdb5 603d 82df 0dbe 5bd5 15bd ab87 203c
000001c0: 2acf c63d abbd ddbb 13c9 5abd 8fe6 573d
000001d0: 52d7 02bd 1f9d 0a3e c0d8 2fbe 059f e03d
000001e0: 1f4c 29bd f3fc 34bd 5501 8a3d 7874 9b3d
000001f0: fa36 ddbd 6b17 a4bd 008d d9bc b6fe aebd
00000200: 7655 4fbd 5ee0 1b3d 2995 40bc 9852 45bd
00000210: 2103 26bd 11e6 f73c 59c1 953d 0962 1b3d
00000220: ed0a 8bbd 4d14 c93c a4a1 02bd 6b8c 9ebd
00000230: 0509 b7bd 6ab7 943b d54f 073e d090 77bd
00000240: 5bc4 d23c 1899 133e a8be 8fb9 e2bf b43a
00000250: 9c1e 253d 7a5f c03c 9870 2b3c 2904 32bc
00000260: 62b9 473d 3df7 8f3d 9bb7 b4bb cf3a 4b3d
00000270: f677 31be 66d2 bd3c 27df aa3d b144 d93d
00000280: 5e50 e23d 7709 47be 1831 a4bd b749 0bbe
00000290: aa48 14bd 4cba 4a3d 2215 31be 6824 763d
000002a0: aaba 86bd 73b4 1dbc f124 f83d 714b 9f3d
000002b0: f710 943d 1b39 163b c2b6 0abe 98ce 03bd
000002c0: dbf8 033d be24 c73d 1b09 17bd f57c 1a3c
000002d0: 3edd bdbc 30a7 3d3d 510d c1bd 7ecf 273d
000002e0: 4569 2ebc a0cc 0a3e 976d 17be 571f 1a3e
000002f0: d7bf c5bd cc15 e23d e5bd 803d 8055 45bc
00000300: 680d b63c 9561 26bd 4b30 1ebe c308 393e
00000310: 73af c33c 878a 4dbe fe8a b0bb 36e6 d53c
00000320: 6272 953d d169 cbbb 1a93 f7bc fb3a e5bd
00000330: 1b96 e8bd c0f3 493d e07f 233c 1906 893d
00000340: f49a 03bd 84e0 943d 41f3 bbbd a0d7 bf3c
00000350: ddc7 5ebb e2b0 753c 1a48 303d c37b 89bd
00000360: 58d3 f73c 937c 4e3e bfb9 f23c f8a0 733d
00000370: 24f4 6b3b 4567 81bd 30e2 a53d 0860 86bd
00000380: 9eaf 003b 128b 293d 47be b63c aef1 283d
00000390: e08d a6bc 5e0a 71bd 811b f6bd be74 1d3c
000003a0: ebbc 85bc f414 e0bd fd12 94bd 8d5d d6bd
000003b0: 608e f93c 284b 3a3c dbe3 74bd f6ba 9fbd
000003c0: 2850 243a f1f0 523a 4e94 13bd 652b e3bd
000003d0: 2324 ddbc 66c6 e6bc f087 4c3c 0da3 d9bd
000003e0: b471 01bd bd10 62bc 4792 69bd be2c 903d
000003f0: 3abf 22bd 5292 8cbd 472d 30be d8fc d03d

linear1.bias f4 [128]
-0.038331084 0.028743872 0.13332945 0.133418 -0.04707066 -0.036964715 0.0897055 -0.038581114
0.09988162 0.15138991 0.013566249 0.100092486 0.02995981 -0.07062827 0.0035844375 -0.059877396
-0.056830466 0.16109511 0.13735798 -0.047095735 0.037448626 -0.023996461 0.15610753 -0.021509744
0.055124935 0.052088648 0.16623399 -0.011822756 0.120329976 -0.04318637 0.0698109 -0.029256582
-0.01657596 -0.0059441174 0.00050611113 0.1344841 0.18605605 0.06959068 0.02182196 -0.0049180514
0.15881293 -0.03954 0.054533575 -0.01826038 0.17456403 0.03766347 0.0036544295 0.21139725
0.12759507 0.14660893 -0.04518373 0.19306293 0.07384208 0.07878454 -0.044809204 0.052787658
0.10758777 0.096547276 0.10957145 0.040834345 0.15732476 0.032449733 0.0019804065 0.12467525
0.039229758 0.023489486 0.043969337 0.004914227 0.13663465 -0.012370325 0.07522895 0.0994675
-0.028470136 0.18228832 0.20532806 -0.027323667 0.031255767 0.17927414 -0.037053972 -0.040276427
0.19162886 0.14469332 0.13546167 0.013591157 0.13400121 0.06998335 0.07629687 0.009388074
0.06430515 0.11647172 0.061349317 0.009873124 -0.060315903 0.14851089 -0.04186967 0.10562433
0.12570943 0.09568827 0.049158778 0.093129024 -0.01881564 -0.009730114 -0.019483585 0.062297605
-0.023883555 -0.019708203 0.110186666 0.14734013 0.01935359 0.18485533 0.1356943 0.08319438
-0.05159588 0.017409684 0.18585546 0.1716973 0.009972792 0.17138436 -0.02340397 0.1717463
-0.016155291 -0.04099247 0.071590975 0.15708427 0.004719625 0.01192464 0.016937898 -0.019644458
00000000: 0e01 1dbd 4578 eb3c 8487 083e ba9e 083e
00000010: 2acd 40bd 5068 17bd 84b7 b73d 3b07 1ebd
00000020: bc8e cc3d f505 1b3e f944 5e3c 4afd cc3d
00000030: 476e f53c 8ea5 90bd e2e8 6a3b 0042 75bd
00000040: 10c7 68bd 1ef6 243e 92a7 0c3e 75e7 40bd
00000050: bb63 193d 3a94 c4bc a7da 1f3e 3435 b0bc
00000060: afca 613d e85a 553d 3e39 2a3e 3cb4 41bc
00000070: 906f f63d 31e4 30bd 04f9 8e3d 80ab efbc
00000080: 4fca 87bc dfc6 c2bb 8bac 043a 33b6 093e
00000090: 7a85 3e3e 8f85 8e3d f8c3 b23c 9b27 a1bb
000000a0: db9f 223e b2f4 21bd 995e 5f3d cb96 95bc
000000b0: eac0 323e 0345 1a3d 277f 6f3b 8578 583e
000000c0: 48a8 023e a720 163e 9312 39bd 4ab2 453e
000000d0: 843a 973d ca59 a13d db89 37bd df37 583d
000000e0: fa56 dc3d 94ba c53d ff66 e03d ea41 273d
000000f0: be19 213e 03ea 043d b5c9 013b bd55 ff3d
00000100: 62af 203d 066d c03c 3119 343d 8607 a13b
00000110: f4e9 0b3e e7ac 4abc a311 9a3d 9eb5 cb3d
00000120: 343a e9bc caa9 3a3e 8541 523e e2d5 dfbc
00000130: 0c06 003d a493 373e e8c5 17bd e5f8 24bd
00000140: 5b3a 443e 7c2a 143e 77b6 0a3e 72ad 5e3c
00000150: 9d37 093e 6e53 8f3d 8941 9c3d 70d0 193c
00000160: 6bb2 833d ba88 ee3d 6c49 7b3d e2c2 213c
00000170: cf0d 77bd 3d13 183e 887f 2bbd 9251 d83d
00000180: f9b9 003e 36f8 c33d b75a 493d 6eba be3d
00000190: 4223 9abc 0e6b 1fbc 0a9c 9fbc c62b 7f3d
000001a0: 72a7 c3bc 1973 a1bc 8ca9 e13d 55e0 163e
000001b0: 6c8b 9e3c b74a 3d3e 72f3 0a3e d161 aa3d
000001c0: 3456 53bd c19e 8e3c e550 3e3e 6bd1 2f3e
000001d0: ec64 233c 627f 2f3e afb9 bfbc 43de 2f3e
000001e0: 1a58 84bc b8e7 27bd 4a9e 923d b3da 203e
000001f0: 16a7 9a3b 915f 433c 59c1 8a3c 6aed a0bc

linear2.weight f4 [79, 128]
0.1538405 -0.08249459 0.16929816 -0.033613764 0.053073056 -0.11974532 -0.14314407 -0.002236546
0.16021329 0.1142547 0.10445686 0.065573245 0.006381852 0.09500551 0.12295588 -0.113755025
0.17424063 -0.10238721 -0.06278813 -0.01275532 -0.18027325 -0.025489114 -0.21441518 -0.06307122
-0.036715515 0.005316805 0.13605243 -0.10484315 0.1704295 -0.05363687 0.023186294 0.018098166
0.023486618 -0.082330525 -0.009186542 0.07313942 -0.06669077 -0.02740965 -0.090899296 -0.13392761
-0.19555452 -0.01980791 -0.07250787 -0.028715445 -0.073281884 -0.046503432 0.0068565113 0.054495536
-0.0039315415 0.06966764 0.05164924 0.5236315 0.049787737 -0.0075555146 -0.10586446 -0.013712112
-0.13525443 -0.044629686 0.47586524 0.09615563 -0.1613934 0.19469237 -0.011565272 0.14730798
-0.017623963 -0.07066045 0.14064826 -0.030020647 0.15594833 -0.041770503 0.06880505 0.19698292
-0.10773602 0.05423115 0.12364374 0.0085526705 0.013074678 0.002450541 -0.053798605 0.35441852
-0.090541594 -0.04682499 0.11581183 0.12700172 0.042896867 -0.060056675 -0.020243293 0.10219033
-0.13324584 -0.07971427 0.05796977 0.189106 0.04829233 -0.027158737 0.26249805 0.3004078
0.009115995 0.2483705 -0.07612587 0.038773715 0.038355682 -0.048447654 0.23995012 -0.09329901
-0.16167563 0.05250107 0.13014519 -0.1304237 0.11713237 0.24434656 0.12752856 -0.02312385
0.10946071 0.029587278 -0.12736732 -0.11348532 -0.15272148 0.3148747 -0.16881931 0.12843722
0.21148992 0.10074852 -0.053089995 0.20273429 0.13152295 0.07275909 0.18981244 -0.14665592
0.055375293 0.076060645 -0.09252048 0.0317252 0.028208429 0.036154464 -0.008585902 0.06789
0.049834117 -0.047933854 0.027214754 0.028106416 0.035066016 0.069079876 -0.0678545 -0.06422056
0.079991795 0.07051815 -0.0019522546 -0.05095855 -0.07793482 0.0028402784 -0.0041942797 0.014746218
0.052241158 0.04297187 -0.09022812 -0.050599687 0.06715099 0.07056312 -0.09459557 -0.05830978
-0.05011039 -0.09417481 -0.04789848 0.02739988 -0.08276294 0.004520116 -0.057828948 -0.02602665
-0.08225519 -0.050803717 -0.013453702 -0.08109806 -0.06253747 -0.028913114 -0.0016881127 -0.024590623
-0.03834491 -0.044814065 -0.021880317 0.03025901 -0.076489605 0.06963271 -0.0036702107 0.044800244
-0.010158558 0.07462618 -0.059792396 0.025155954 -0.085509405 0.025039418 0.0020561614 -0.08637592
0.04317097 -0.039363936 0.025724625 0.058995504 -0.08697081 0.080498055 0.07822292 0.018419579
-0.058667812 -0.09173389 -0.07549047 0.072880045 0.04230899 0.055889793 -0.08335819 -0.015766291
0.042496745 -0.029708577 0.019767854 0.054766163 0.019520903 -0.019628037 -0.04224878 -0.026756452
-0.03650332 -0.034788232 0.051805884 0.057041056 -0.05067028 -0.03790439 -0.06538448 -0.09594988
0.049547583 -0.024027152 0.03286887 -0.077283256 0.03541001 -0.07029295 -0.085989036 0.05706454
-0.08067846 0.023458822 0.007849021 -0.10314469 -0.025420524 0.037521336 -0.06257329 -0.03215309
0.05155114 -0.081829086 0.013181491 -0.061148193 -0.05693246 -0.09916482 -0.04216711 -0.0026451137
0.0036751372 -0.023106167 0.014533207 -0.0013178083 -0.036104627 -0.022242285 -0.06872018 0.024559671
00000000: 5d88 1d3e ecf2 a8bd 7f5c 2d3e 96ae 09bd
00000010: 2263 593d 093d f5bd 5c94 12be 0493 12bb
00000020: f40e 243e 5efe e93d 7aed d53d 444b 863d
00000030: db1e d13b 4092 c23d 4bd0 fb3d 65f8 e8bd
00000040: 236c 323e 63b0 d1bd 1097 80bd b1fb 50bc
00000050: 8d99 38be 8cce d0bc a78f 5bbe 7c2b 81bd
00000060: 0263 16bd 9838 ae3b 5451 0b3e 01b8 d6bd
00000070: 1285 2e3e 56b2 5bbd 2ff1 bd3c 9b42 943c
00000080: 0267 c03c e89c a8bd 2683 16bc 1fca 953d
00000090: 2c95 88bd 348a e0bc 6929 babd 5224 09be
000000a0: 723f 48be 3344 a2bc 027f 94bd a73c ebbc
000000b0: d014 96bd 627a 3ebd 96ac e03b b636 5f3d
000000c0: 29d4 80bb e8ad 8e3d 278e 533d b70c 063f
000000d0: 3aee 4b3d 4094 f7bb 77cf d8bd c4a8 60bc
000000e0: 2380 0abe 9ecd 36bd 9ca4 f33e 3eed c43d
000000f0: 5044 25be 705d 473e 447c 3dbc e7d7 163e
00000100: 2160 90bc 6db6 90bd 1906 103e dced f5bc
00000110: ebb0 1f3e 8c17 2bbd a9e9 8c3d e4b5 493e
00000120: b4a4 dcbd 7b21 5e3d ee38 fd3d 8020 0c3c
00000130: 2d37 563c 4199 203b ed5b 5cbd 5876 b53e
00000140: df6d b9bd 90cb 3fbd c12e ed3d bd0c 023e
00000150: a0b4 2f3d fdfd 75bd 43d5 a5bc 2a49 d13d
00000160: 9971 08be 3c41 a3bd b671 6d3d 01a5 413e
00000170: 2ece 453d 007c debc 2566 863e 0dcf 993e
00000180: 415b 153c d654 7e3e e1e7 9bbd 30d1 1e3d
00000190: d91a 1d3d 0c71 46bd 7cb5 753e 8d13 bfbd
000001a0: 4c8e 25be 5d0b 573d c844 053e ca8d 05be
000001b0: 19e3 ef3d fc35 7a3e d996 023e 3a6e bdbc
000001c0: f02c e03d 0561 f23c 946c 02be fe6a e8bd
000001d0: 0563 1cbe 4237 a13e f8de 2cbe 0c85 033e
000001e0: d090 583e 3d55 ce3d e574 59bd 9499 4f3e
000001f0: f4ad 063e b802 953d 315e 423e f82c 16be
00000200: 34d1 623d afc5 9b3d 617b bdbd 49f2 013d
00000210: 5d15 e73c b416 143d e2ab 0cbc ea09 8b3d
00000220: dc1e 4c3d 4a56 44bd 7af1 de3c 6d3f e63c
00000230: 62a1 0f3d c079 8d3d 4df7 8abd 1286 83bd
00000240: bdd2 a33d d26b 903d cbe2 ffba eab9 50bd
00000250: 4a9c 9fbd f723 3a3b 2b70 89bb 1f9a 713c
00000260: d3fa 553d 4603 303d 85c9 b8bd 9e41 4fbd
00000270: 7586 893d 6683 903d 52bb c1bd 3cd6 6ebd
00000280: 8d40 4dbd b9de c0bd 3231 44bd b775 e03c
00000290: 9e7f a9bd 7b1d 943b 0cde 6cbd d735 d5bc
000002a0: 6975 a8bd 8f17 50bd eb6c 5cbc bd16 a6bd
000002b0: a513 80bd 32db ecbc aa43 ddba 4672 c9bc
000002c0: 8d0f 1dbd f48e 37bd 5a3e b3bc bee1 f73c
000002d0: 95a6 9cbd 989b 8e3d eb87 70bb 7680 373d
000002e0: 1570 26bc 9cd5 983d dfe8 74bd dc13 ce3c
000002f0: 8e1f afbd 771f cd3c aac0 063b dce5 b0bd
00000300: 0bd4 303d 143c 21bd 73bc d23c 45a5 713d
00000310: c11d b2bd 2adc a43d 5733 a03d a8e4 963c
00000320: a94d 70bd fade bbbd bf9a 9abd 2242 953d
00000330: 314c 2d3d b2ec 643d b3b7 aabd 4f28 81bc
00000340: 1111 2e3d 675f f3bc 32f0 a13c 7c52 603d
00000350: 4dea 9f3c faca a0bc 0f0d 2dbd 5930 dbbc
00000360: 8184 15bd 1b7e 0ebd 6832 543d e2a3 693d
00000370: a48b 4fbd a241 1bbd 4ce8 85bd 5f81 c4bd
00000380: 68f2 4a3d 97d4 c4bc 82a1 063d af46 9ebd
00000390: 160a 113d c0f5 8fbd 051b b0bd 82bc 693d
000003a0: c03a a5bd b72c c03c 2e99 003c 863d d3bd
000003b0: b43e d0bc f9af 193d 6d26 80bd f5b2 03bd
000003c0: 4a27 533d 0296 a7bd 2ef7 573c 8776 7abd
000003d0: 0332 69bd ed16 cbbd 6bb7 2cbd a559 2dbb
000003e0: 92da 703b 2549 bdbc b01c 6e3c 4fba acba
000003f0: 72e2 13bd 7435 b6bc 2abd 8cbd 5d31 c93c

linear2.bias f4 [79]
0.07218763 -0.09300072 0.02918162 0.1398944 -0.016307894 0.006364523 0.00988105 0.024868082
-0.025428202 0.021931028 0.029011074 0.03184455 -0.054082863 0.09648594 -0.10905142 -0.11868566
-7.670319e-06 0.008463401 0.06916588 0.058494296 0.013705063 0.0117839435 0.016357591 0.10527529
-0.04981965 0.12382246 0.08928021 0.009720404 -0.013065743 0.0641521 0.021216296 0.13055143
0.12829222 -0.06709584 0.023891794 -0.029135816 -0.05088007 -0.046826236 0.095417045 -0.071857385
0.06401792 -0.056415766 -0.10090804 -0.09792786 -0.011596722 0.027452113 0.08505932 0.09201415
0.051100574 0.07137226 0.066185504 0.019583479 0.018933345 0.009591688 -0.12846074 -0.11858348
-0.024799902 -0.027886972 0.022758566 0.040219214 -0.08287405 0.026276154 -0.11959038 -0.115099065
-0.056509368 -0.04805958 -0.051462438 -0.008277646 -0.09956523 0.011669885 -0.008634754 -0.003123107
0.10021477 0.039990902 -0.035842784 0.04809577 -0.06053856 -0.0119880205 -0.005334262
00000000: 1cd7 933d 2977 bebd 4b0e ef3c 7a40 0f3e
00000010: 2298 85bc 7d8d d03b 21e4 213c 26b8 cb3c
00000020: ce4e d0bc b3a8 b33c a2a8 ed3c 6e6f 023d
00000030: fe85 5dbd 6c9a c53d 5a56 dfbd 7811 f3bd
00000040: c5af 00b7 14aa 0a3c d7a6 8d3d b797 6f3d
00000050: 338b 603c 7111 413c 5b00 863c 929a d73d
00000060: b00f 4cbd a196 fd3d 8bd8 b63d 5442 1f3c
00000070: b311 56bc 2d62 833d cccd ad3c 46af 053e
00000080: 095f 033e 8b69 89bd b9b8 c33c 3cae eebc
00000090: 9f67 50bd decc 3fbd 036a c33d f729 93bd
000000a0: d41b 833d 3814 67bd e0a8 cebd 678e c8bd
000000b0: 2d00 3ebc 41e3 e03c 9533 ae3d ea71 bc3d
000000c0: d64e 513d 9f2b 923d 448c 873d 886d a03c
000000d0: 1a1a 9b3c 7526 1d3c 368b 03be e5db f2bd
000000e0: 2a29 cbbc 3873 e4bc 2c70 ba3c e7bc 243d
000000f0: dfb9 a9bd 1741 d73c cdeb f4bd 0fb9 ebbd
00000100: 5e76 67bd 1fda 44bd 47ca 52bd f79e 07bc
00000110: dbe8 cbbd 0c33 3f3c c978 0dbc 0aad 4cbb
00000120: 673d cd3d 80cd 233d e2cf 12bd 1200 453d
00000130: 48f7 77bd 6769 44bc 08cb aebb
